trained_models/trained_state_dict.pt (torch, 44882 bytes, 2 tensors)

layers.fc1.weight f4 [128, 40]
-0.06021271 -0.08936236 0.0046773986 -0.07345585 0.060600054 -0.023048807 0.08367945 0.11421207
-0.06924295 -0.16729112 0.115357466 -0.12968744 -0.07129309 0.004799 -0.14810345 -0.037106153
-0.13570581 -0.09586944 0.03826197 -0.140116 0.05383172 0.06394167 -0.1342785 0.07360797
-0.052511618 -0.08034566 0.061090145 -0.113034435 -0.13633746 0.058875524 -0.01448404 -0.112011835
-0.03974463 -0.13176127 0.030935947 -0.19480728 -0.024902785 -0.14153828 -0.10025641 -0.10077429
-0.16268913 -0.14366882 -0.010577701 0.034159362 -0.17257002 -0.052233137 0.00941002 -0.0015650865
-0.17618874 -0.084379084 -0.002381728 -0.06268831 -0.051345762 0.060699947 -0.018244753 0.024481801
-0.20721954 0.04308649 -0.03151687 -0.084593795 0.049250316 -0.10604579 -0.020235222 -0.16986164
-0.06055529 -0.114052616 0.054217026 0.056464795 -0.1654056 -0.15282919 -0.12189093 -0.03128311
-0.20013271 0.061823238 0.02334619 -0.10243414 -0.18769392 -0.05405554 0.07142584 -0.009784093
-0.055700444 0.0053201583 -0.027846746 -0.1843014 -0.19173941 -0.11456767 0.004340711 -0.12642969
0.113194175 0.016480397 -0.0036975625 -0.11405309 0.0856421 -0.12824759 0.086900644 -0.049445637
0.05911051 -0.13408774 -0.17874604 -0.028384523 0.022489559 0.050418105 0.11114718 -0.046700045
-0.00938334 0.070218645 0.062445875 -0.026238985 0.07535982 0.009458279 -0.0973486 -0.08705177
-0.11689215 -0.12380519 -0.03089467 0.059410315 0.079224385 0.06210032 -0.073852874 0.011944002
-0.055724032 -0.01922689 0.021643328 0.008310931 -0.12091493 -0.16604646 -0.040277746 0.009083293
-0.109290086 -0.1080439 0.1338795 -0.14125606 0.10053334 -0.079087816 0.16016792 0.10474703
-0.11560427 0.04811934 -0.07986676 -0.06919243 0.12641945 -0.096315384 0.111780696 0.0027892578
-0.0046840603 -0.16358702 -0.1129278 -0.16919415 -0.0506074 -0.079014234 -0.13724548 0.14849822
0.077463925 0.011982744 -0.026556587 -0.13875298 -0.084327616 0.062411103 -0.10879335 -0.08630384
-0.15757793 0.0828416 0.045537423 0.04644536 0.025820093 -0.039113794 0.013226621 0.0882846
0.12634699 0.119055346 -0.1202442 -0.098156534 -0.035477232 -0.1311625 -0.012188184 -0.013010965
-0.010192291 0.01093838 -0.13073836 0.0128721045 -0.07610593 -0.11418446 0.0522074 0.040771946
0.10924577 0.13205947 0.06458005 -0.075017035 0.061285373 0.07064609 -0.003879495 0.0016164349
0.001428032 0.12900263 -0.028874993 -0.0062702997 -0.10416961 0.08690663 -0.13067478 0.10937309
0.18908189 0.13781504 -0.1252995 -0.10343884 0.03410142 -0.10125397 0.07314434 0.09762219
-0.10143762 0.14294472 0.0058250986 -0.05597248 -0.09150877 -0.024230566 0.1617119 -0.093169115
0.010521157 0.11516718 -0.045601588 -0.11907419 -0.054521445 -0.09303858 0.010563057 0.026232624
0.13199177 0.17946348 -0.09595447 0.13394439 1.3181998e-06 0.019531092 -0.100018054 0.08344427
-0.048477866 -0.028637746 0.13762411 0.057568822 0.12481643 0.052501347 0.006489021 0.15632895
0.0644949 0.0076832627 -0.18168624 0.10484172 -0.067784436 0.083126605 0.023055412 0.029926583
0.026848562 -0.17482466 0.110715985 -0.114498675 0.060523808 -0.07510455 -0.05544817 -0.17521164
00000000: 9aa1 76bd 9d03 b7bd dd44 993b 0570 96bd
00000010: c337 783d dad0 bcbc 2260 ab3d 05e8 e93d
00000020: 3fcf 8dbd 5d4e 2bbe 8940 ec3d c9cc 04be
00000030: 1d02 92bd ee40 9d3b 6ea8 17be 9ffc 17bd
00000040: 77f6 0abe 3257 c4bd 95b8 1c3d 927a 0fbe
00000050: a67e 5c3d daf3 823d 4e80 09be c6bf 963d
00000060: 6c16 57bd 448c a4bd a939 7a3d 997e e7bd
00000070: 0c9c 0bbe 7627 713d 784e 6dbc 7666 e5bd
00000080: 44cb 22bd 6dec 06be 626d fd3c 8f7b 47be
00000090: ed00 ccbc 69ef 10be 3c53 cdbd c062 cebd
000000a0: fb97 26be eb1d 13be 184e 2dbc b0ea 0b3d
000000b0: 32b6 30be 6af2 55bd 7c2c 1a3c 9723 cdba
000000c0: d26a 34be f1ce acbd c416 1cbb bb62 80bd
000000d0: ef4f 52bd 82a0 783d 0576 95bc 0f8e c83c
000000e0: 5c31 54be 767b 303d d517 01bd 833f adbd
000000f0: b3ba 493d 892e d9bd 56c4 a5bc 36f0 2dbe
00000100: d308 78bd 6b94 e9bd ac12 5e3d a147 673d
00000110: 1660 29be 417f 1cbe f4a1 f9bd b822 00bd
00000120: 97ef 4cbe 5d3a 7d3d 8240 bf3c fec8 d1bd
00000130: d632 40be 5869 5dbd b647 923d 764d 20bc
00000140: 2626 64bd b954 ae3b dc1e e4bc 82b9 3cbe
00000150: 5657 44be 74a2 eabd 863c 8e3b c976 01be
00000160: 59d2 e73d e601 873c ce52 72bb ab94 e9bd
00000170: 2065 af3d 5653 03be f7f8 b13d 8287 4abd
00000180: dd1d 723d 4c4e 09be 3409 37be a986 e8bc
00000190: 063c b83c 3783 4e3d 22a1 e33d 8c48 3fbd
000001a0: 95bc 19bc cbce 8f3d 3fc7 7f3d 24f3 d6bc
000001b0: 4056 9a3d e6f6 1a3c b45e c7bd 3348 b2bd
000001c0: 2765 efbd 938d fdbd d216 fdbc 3b58 733d
000001d0: 6540 a23d e85c 7e3d 2d40 97bd c6b0 433c
000001e0: e23e 64bd b681 9dbc 594d b13c 922a 083c
000001f0: 3fa2 f7bd 1508 2abe 47fa 24bd 18d2 143c
00000200: 7bd3 dfbd 1f46 ddbd b517 093e 6ea5 10be
00000210: 6ce4 cd3d cbf8 a1bd 0f03 243e 9c85 d63d
00000220: eec1 ecbd c918 453d 2f91 a3bd c3b4 8dbd
00000230: 1a74 013e 0041 c5bd 47ed e43d fbcb 363b
00000240: bf7c 99bb 5b83 27be b146 e7bd 3b41 2dbe
00000250: b449 4fbd 37d2 a1bd 148a 0cbe eb0f 183e
00000260: 68a5 9e3d 4553 443c 338d d9bc 4315 0ebe
00000270: f5b3 acbd c9a2 7f3d 0ccf debd 11c0 b0bd
00000280: 1c5c 21be dba8 a93d 7385 3a3d 7d3d 3e3d
00000290: a984 d33c c935 20bd 78b4 583c 8ece b43d
000002a0: 1b61 013e 4ad3 f33d 9742 f6bd 4b06 c9bd
000002b0: 9350 11bd 764f 06be f3b0 47bc f12b 55bc
000002c0: 91fd 26bc e436 333c 47e0 05be 85e5 523c
000002d0: 6ddd 9bbd 8bd9 e9bd 6dd7 553d 7c00 273d
000002e0: 3fbc df3d 993a 073e 8c42 843d 88a2 99bd
000002f0: 5f06 7b3d e6ae 903d 203f 7ebb 8ede d33a
00000300: cd2c bb3a 4419 043e 408b ecbc 1677 cdbb
00000310: e056 d5bd 1afc b13d 9ccf 05be 00ff df3d
00000320: af9e 413e 631f 0d3e 834e 00be bed7 d3bd
00000330: eead 0b3d 3e5e cfbd b3cc 953d 25ee c73d
00000340: 87be cfbd 1a60 123e 78e0 be3b 6643 65bd
00000350: f368 bbbd 2e7f c6bc ce97 253e 73cf bebd
00000360: ee60 2c3c c5dc eb3d bbc8 3abd 2bdd f3bd
00000370: e151 5fbd 038b bebd ac10 2d3c cde5 d63c
00000380: da28 073e 46c5 373e c783 c4bd b828 093e
00000390: 00ed b035 abff 9f3c 44d6 ccbd d4e4 aa3d
000003a0: ba90 46bd b599 eabc 56ed 0c3e 49cd 6b3d
000003b0: c29f ff3d a70b 573d daa1 d43b b214 203e
000003c0: e715 843d e1c3 fb3b f50b 3abe 41b7 d63d
000003d0: 91d2 8abd 483e aa3d b4de bc3c 9828 f53c
000003e0: 84f1 db3c 3c05 33be 10bf e23d 487e eabd
000003f0: d0e7 773d 6ad0 99bd 9f1d 63bd ae6a 33be

layers.fc2.weight f4 [40, 128]
0.0499383 -0.00018308357 -0.033965893 -0.005172606 -0.050990254 0.04695759 -0.054743655 -0.05830747
-0.091666415 0.012441058 -0.039522782 -0.016646639 0.0023106048 -0.038387284 -0.013706793 -0.022754386
-0.027054053 -0.052775268 -0.0037570065 -0.015000135 -0.042230725 -0.03297794 -0.06745546 -0.01861007
0.008917892 -0.029016439 -0.036813807 -0.023897834 0.060262885 -0.09752875 -0.030407956 -0.0990147
-0.07235106 0.015074693 -0.023208724 0.016327891 -0.07845399 -0.023402212 -0.075362965 -0.007486389
-0.03585421 0.06762443 -0.067871444 -0.0034163352 0.022991061 -0.022671124 -0.055974524 -0.0651922
-0.07654784 -0.008570042 0.08900947 -0.035192996 -0.043543067 -0.07909891 0.033834837 -0.0039951354
0.06257371 0.0069758366 -0.096264504 0.034828443 -0.07300167 0.0698325 -0.042567987 -0.021047536
0.013565644 0.010938273 0.043440785 -0.07404688 0.0003581768 -0.06296309 0.02446592 -0.07814377
-0.08723423 -0.041296396 -0.06391135 0.053469934 -0.006847895 0.055124547 -0.070339434 0.03131812
-0.019154148 -0.08070277 -0.029988613 -0.098605864 0.058983333 0.009973371 -0.04816355 0.054730177
0.072938636 -0.014510628 0.023239512 0.08228961 -0.05001955 0.023656689 -0.057778247 -0.054039292
-0.017228343 -0.03688743 -0.06927055 -0.009590293 -0.08548158 0.036856573 -0.054973762 -0.04929733
-0.005110454 0.014369226 -0.021117263 -0.006559646 0.050393157 0.018125532 -0.023879826 -0.08610232
-0.062345535 0.03299296 -0.095608465 0.027051028 0.038824316 0.06023936 -0.009360539 0.018948292
-0.07414299 -0.009878844 0.12781616 -0.07452309 0.0056167357 -0.07514125 0.07646291 -0.04118926
-0.0038073177 -0.021910097 -0.04954517 -0.026095383 -0.0069858576 0.0061126505 -0.045602225 0.009114324
-0.07860949 -0.067027904 -0.043448012 -0.021244403 0.076423734 -0.041744888 -0.014038743 0.023674084
-0.014412044 -0.07042714 -0.060518812 -0.04148306 -0.01902724 -0.015720949 -0.07577723 -0.042938866
-0.07275367 0.046347536 0.034799498 0.0523964 -0.00042847564 0.003837202 -0.081936136 -0.08927302
-0.054545414 0.04587565 -0.048329998 -0.016553652 -0.03974195 0.046501283 -0.06341103 -0.08603719
-0.059666242 0.06926117 0.060152896 -0.04602516 0.119922966 0.0076280483 -0.02183062 0.08467117
-0.034060143 0.004719509 0.04385753 -0.00903542 0.026855083 0.008900106 -0.020839658 0.019942893
0.068129614 0.06023202 0.041052695 -0.006672228 -0.014928131 0.09296282 -0.089539275 -0.05499745
0.030432135 0.0092082145 0.0056346436 -0.032325927 -0.049462676 0.047330078 0.029150316 0.012215319
-0.021949038 -0.007208613 -0.05787676 0.012593699 -0.0013636912 0.016206829 0.04208674 -0.02144584
0.034355827 0.02289866 0.0053283963 0.022546932 -0.08735471 -0.015626399 -0.07683458 -0.027997773
0.03471938 -0.017461501 0.025842348 -0.010189293 -0.06338725 -0.06428774 -0.146763 0.054635525
-0.052653365 -0.023396647 0.004976354 0.00885991 0.032177728 -0.07430363 0.034844585 -0.011912752
0.059117015 -0.113240875 0.055204913 -0.06396714 0.04548062 -0.08264858 -0.062603004 0.062092997
0.029867185 -0.03338637 -0.017442815 0.009086653 -0.00996636 -0.024147466 -0.070082694 -0.08773664
-0.06137 -0.015994035 0.0034014073 -0.08008286 -0.02524538 -0.09813806 -0.0762654 0.07716657
00000000: 1a8c 4c3d 1ffa 3fb9 d21f 0bbd f77e a9bb
00000010: 28db 50bd 9a56 403d e23a 60bd d0d3 6ebd
00000020: 9abb bbbd 94d5 4b3c a4e2 21bd 885e 88bc
00000030: 846d 173b fc3b 1dbd 7592 60bc 6867 babc
00000040: 76a0 ddbc e12a 58bd 1c38 76bb 20c3 75bc
00000050: 20fa 2cbd e013 07bd 1726 8abd 2574 98bc
00000060: 5a1c 123c e2b3 edbc 13ca 16bd 64c5 c3bc
00000070: 37d6 763d 27bd c7bd 1b1a f9bc 38c8 cabd
00000080: cb2c 94bd d8fb 763c 3920 bebc 12c2 853c
00000090: 7cac a0bd ffb5 bfbc e657 9abd 6250 f5bb
000000a0: dddb 12bd ad7e 8a3d 2f00 8bbd 98e4 5fbb
000000b0: c057 bc3c cbb8 b9bc 8b45 65bd 7d83 85bd
000000c0: 1dc5 9cbd 5d69 0cbc 994a b63d 8826 10bd
000000d0: 375a 32bd 9cfe a1bd 6696 0a3d a0e9 82bb
000000e0: a526 803d 8f95 e43b 5326 c5bd 45a8 0e3d
000000f0: e681 95bd 5704 8f3d c55b 2ebd e26b acbc
00000100: 6f42 5e3c 7136 333c f7ee 313d e4a5 97bd
00000110: adc9 bb39 cbf2 80bd c16c c83c d709 a0bd
00000120: dca7 b2bd 6926 29bd f4e3 82bd 4a03 5b3d
00000130: 4f64 e0bb 47ca 613d 1f0e 90bd 6e47 003d
00000140: 29e9 9cbc 7e47 a5bd aeaa f5bc dff1 c9bd
00000150: 8298 713d 5a67 233c 2547 45bd c02c 603d
00000160: da60 953d fcbd 6dbc ca60 be3c 7487 a83d
00000170: 4de1 4cbd accb c13c e2a8 6cbd 4e58 5dbd
00000180: 7422 8dbc 4617 17bd b8dd 8dbd 9b20 1dbc
00000190: f710 afbd ebf6 163d 2b2c 61bd ffeb 49bd
000001a0: 9875 a7bb e76c 6b3c 1cfe acbc 4df2 d6bb
000001b0: 0e69 4e3d ff7b 943c a09f c3bc 6a56 b0bd
000001c0: 085e 7fbd a023 073d 5fce c3bd 1e9a dd3c
000001d0: 3f06 1f3d 8cbd 763d f25c 19bc 7339 9b3c
000001e0: 48d8 97bd e0da 21bc 3de2 023e 909f 98bd
000001f0: 980c b83b a8e3 99bd 9698 9c3d 12b6 28bd
00000200: 3184 79bb ce7c b3bc e0ef 4abd fcc5 d5bc
00000210: 9fe9 e4bb a14c c83b 66c9 3abd 3f54 153c
00000220: 03fe a0bd ed45 89bd 8bf6 31bd be08 aebc
00000230: 0c84 9c3d b0fc 2abd c202 66bc 27f0 c13c
00000240: 7e20 6cbc 1b3c 90bd 93e2 77bd 24ea 29bd
00000250: 04df 9bbc 38c9 80bc 1831 9bbd aae0 2fbd
00000260: e0ff 94bd ead6 3d3d eb89 0e3d 9c9d 563d
00000270: 07a5 e0b9 9179 7b3b 22ce a7bd c6d4 b6bd
00000280: 036b 5fbd 1be8 3b3d adf5 45bd 869b 87bc
00000290: 74c8 22bd 2178 3e3d a4dd 81bd 4434 b0bd
000002a0: 9764 74bd cdd8 8d3d e262 763d e184 3cbd
000002b0: 2c9a f53d b5f4 f93b 21d6 b2bc 1468 ad3d
000002c0: a682 0bbd 1ca6 9a3b f4a3 333d 4c09 14bc
000002d0: 31ff db3c c0d1 113c eeb7 aabc 475f a33c
000002e0: 8a87 8b3d dab5 763d df26 283d b5a2 dabb
000002f0: 1f95 74bc 4a63 be3d 5e60 b7bd 0245 61bd
00000300: d04c f93c 0dde 163c d1a2 b83b 3168 04bd
00000310: 6099 4abd 2fdd 413d a5cc ee3c c322 483c
00000320: 78ce b3bc 3b36 ecbb 2e10 6dbd cd55 4e3c
00000330: e2bd b2ba 2fc4 843c 2563 2c3d 30af afbc
00000340: b2b8 0c3d f895 bb3c d499 ae3b 58b4 b83c
00000350: 07e7 b2bd ef02 80bc 735b 9dbd 965b e5bc
00000360: e935 0e3d 6c0b 8fbc 55b3 d33c fef0 26bc
00000370: 2dd1 81bd 4aa9 83bd 0a49 16be 80c9 5f3d
00000380: 0eab 57bd 53aa bfbc af10 a33b 2829 113c
00000390: cbcc 033d 802c 98bd 32b9 0e3d b42d 43bc
000003a0: af24 723d d5ea e7bd 8c1e 623d 3401 83bd
000003b0: e349 3a3d a943 a9bd 0136 80bd 3a55 7e3d
000003c0: 07ac f43c 25c0 08bd 3ce4 8ebc 2fe0 143c
000003d0: f249 23bc e8d0 c5bc 8487 8fbd 44af b3bd
000003e0: 1c5f 7bbd ec05 83bc 25ea 5e3b 7c02 a4bd
000003f0: 66cf cebc 9bfc c8bd 0931 9cbd 8209 9e3d
