trained_models/trained_state_dict.pt (torch, 111866 bytes, 3 tensors)

layers.fc1.weight f4 [128, 40]
00000000: a879 a2bd b17c e43c 2fe7 df3c 79bc 1dbc
00000010: 26e5 0c3d eb9e 5b3c 9204 ffbd 5669 523b
00000020: 06e6 083e ab92 ac3d e3ff 143c cb04 e53d
00000030: 1104 0cbd 1887 26be b0ca c73d c088 3fbc
00000040: ae92 92bd 0674 06be f657 01be 8fc8 0ebe
00000050: dd09 a63d 6a27 0e3e f201 0ebe 0414 79bc
00000060: d4fb fcbd 35bd b4bd 2783 b1bd 4331 22bd
00000070: f757 acbc 7ccc 18be c5e4 d33d 10ff cfbc
00000080: f954 cf3c e726 83bc 545a 13be 37a0 a8bc
00000090: 7e7f ce3d 1eb8 c4bd 888d 223e b391 92bd
000000a0: 81bb 43bb ab49 8dbd 3149 e8bd 656f e4bd
000000b0: 0e6d 1ebd ff89 e4bd 10b1 a83d cd3a 9a3d
000000c0: 7927 43bd 5798 14be 7690 b8bd 4402 d03c
000000d0: 9615 213e 5a67 893d af43 d13d 7e68 f63d
000000e0: ba20 1abe 8163 0bbe 6d76 273d 10cd 133e
000000f0: 1534 b63d 7e32 19bd b748 f03b b50f 19bd
00000100: e8d3 14be 05b4 aa3d 9428 1cbe ccb0 ba3d
00000110: 1953 0b3e deac 6b3d 474d ccbd 694d ee3c
00000120: cab2 c0bc 050c 063e 9fc1 10be c881 f5bd
00000130: 4641 dfbc 74f2 ad3d 90b3 ba3d a4f7 003e
00000140: 00aa 063e 46ef 203e c839 57bd 6fb1 ad3d
00000150: e92b b2bb f4eb 173e 4965 80bd 7ee5 173e
00000160: eb9f 67bd ae2b be3d 1890 8bbd 6df7 cabd
00000170: e157 863c 270e ca3d b9c2 3f3d f480 f4bc
00000180: 6400 a6bc 6bc7 023d a40f 24bd e708 c13d
00000190: 0e5f f1bc 97d7 34bd 6ae5 003e e56c 21be
000001a0: a7c3 12be 2d4c ba3d f87c 81bd 5176 ef3d
000001b0: 3b69 20be b573 8f3d 9d05 873d b605 f9bd
000001c0: ebce 5d3c 4043 14be 50d2 033e f7a7 633d
000001d0: a182 0a3e 0a57 13be c9a4 b03d 9ae9 cdbd
000001e0: 99bd 9ebd 966a c3bd 3d82 243e b8fc 18bc
000001f0: 7861 a23d b24f c3bd 7582 e93d 0cc0 d1bd
00000200: 22fa e63d 22cb d53d 0223 aabd ef71 18bd
00000210: 8025 17be 437a dc3b 37a1 9bbd e1f1 55bd
00000220: 6ae8 873d 4e65 c7bd 805d 533c 329a 743d
00000230: a37f 9b3c 21cb 02be 6410 02be 7732 1a3e
00000240: 0a43 dabd ad46 95bd 0eb4 a63b 527f bd3c
00000250: 6250 02bc a4b5 f83d 8b80 cfbc d481 12be
00000260: 3dcb 9f3d 95d8 f13d 6630 19be 2891 4bbd
00000270: 0229 893c 714d 76bd 1c32 c93d d5e7 f3bd
00000280: 7002 423c f0d8 0a3d 8225 8fbd 9a94 c6bd
00000290: 0880 85bd 98a1 833d 1616 b33d 5c44 b0bd
000002a0: db16 cb3d 2d1a 143e f330 22bd 2d69 17be
000002b0: 2a41 13be 2ef2 af3d fefc c3bd 5fbd 5abd
000002c0: 6111 16be 219a 12be 1d61 77bd 2fbc b6bd
000002d0: ad98 06be 73f5 72bd db33 42bd ef37 ad3d
000002e0: 4697 9a3c 0b40 cdbc 3c5f 55bd 9786 0bbe
000002f0: 69e3 c7bd e13a 1e3e b0b8 193c b118 89bd
00000300: 9f23 873d e98f 40bd 25ba 0cbe a41d bd3d
00000310: 44c9 54bc 8fca 0ebe 8358 efbd 14ac 0a3e
00000320: bf01 0c3e 7c04 b13d 4c88 8c3c 2736 fc3d
00000330: 7f12 05be ab33 a23d 5030 04be ca98 173e
00000340: c78e 163d d58d d4bd 69e8 e0bd 0b05 07be
00000350: d9d1 f03c b1cc 63bd 5e8a dc3d e91e 6dbd
00000360: 0407 ff3c 62c2 1abe 07f3 113e 8bfc cdbc
00000370: 6735 77bd d9a6 ffbd 4cca 813d 5c51 413c
00000380: 7aad 953c f16e ef3d 9299 90bd ebaa bfbc
00000390: 47e9 36bd a927 7cbd 85a8 e33d 7622 103d
000003a0: 74d0 21bd 82c3 9d3c e119 85bc d232 0d3d
000003b0: 4e04 a9bd a9fd 04be 6dd3 073e 94df 83bc
000003c0: b7f5 be3d c1ab f8bd 985a c13d 8df0 153e
000003d0: face 133e 8d5e 513c e1b5 183e 322f 2d3c
000003e0: 2e46 00be 8e69 fb3d 3ca4 03bd fde9 fe3d
000003f0: b69c 4fbd 2864 243e 672c c6bd f170 acbc
-0.0793336 0.027891489 0.027331917 -0.009627455 0.03439822 0.013404588 -0.124520436 0.0032106242
0.13368997 0.08426412 0.009094211 0.11182555 -0.034183566 -0.16262472 0.097554564 -0.011690319
-0.07156883 -0.13130197 -0.1263121 -0.13943695 0.0810735 0.13882223 -0.1386793 -0.015202526
-0.1235272 -0.08825151 -0.086675934 -0.03959776 -0.021038039 -0.14921755 0.10346369 -0.025390178
0.025309073 -0.016009761 -0.14389926 -0.020584209 0.10082911 -0.0960543 0.15874302 -0.07156696
-0.00298664 -0.06898817 -0.11342085 -0.11154059 -0.03867822 -0.11159133 0.08236897 0.075307466
-0.047645066 -0.14511238 -0.09011929 0.025391705 0.1573089 0.06709166 0.10217988 0.12031649
-0.15051547 -0.13612176 0.040884424 0.14433694 0.088966526 -0.03740167 0.007332887 -0.037368495
-0.14533961 0.08335117 -0.15249854 0.091157526 0.13605918 0.057537906 -0.09975677 0.029089646
-0.023522753 0.13090523 -0.1413636 -0.119876444 -0.027252804 0.0849351 0.0911628 0.12594467
0.13150787 0.15716276 -0.05254534 0.084811084 -0.0054373634 0.14836103 -0.062693186 0.14833638
-0.056548994 0.09285675 -0.06814593 -0.09910474 0.016399326 0.098659806 0.04681656 -0.029846646
-0.020263858 0.03192846 -0.04005398 0.09425526 -0.02946427 -0.044150915 0.12587515 -0.15764196
-0.14332448 0.090965606 -0.06322664 0.11692489 -0.15665142 0.07004491 0.065928675 -0.121592924
0.013538103 -0.14478779 0.12873197 0.055580106 0.13526393 -0.14388672 0.0862518 -0.100543216
-0.07751007 -0.09541814 0.16065307 -0.009337597 0.07928747 -0.09536685 0.11401836 -0.10241708
0.11278178 0.10439135 -0.083074585 -0.03721803 -0.14760399 0.006728442 -0.07599109 -0.052232627
0.06636126 -0.09736119 0.01290071 0.059717365 0.01898176 -0.127728 -0.12701565 0.15058313
-0.10657318 -0.07288871 0.005087382 0.023132 -0.007953735 0.1214402 -0.025329849 -0.14307338
0.078024365 0.11808888 -0.14959869 -0.04969898 0.016743187 -0.060132448 0.09824011 -0.11909453
0.011841401 0.033898294 -0.06989576 -0.09696312 -0.06518561 0.06427306 0.08744447 -0.086067885
0.09916469 0.1446311 -0.039597463 -0.14786215 -0.14380327 0.08591114 -0.09569739 -0.053403255
-0.14655067 -0.14316608 -0.06039535 -0.08922612 -0.13144179 -0.05931611 -0.047412734 0.08457934
0.01887096 -0.025054952 -0.052092776 -0.1362556 -0.09760172 0.15452148 0.009382412 -0.06694163
0.06598591 -0.047012243 -0.13742884 0.09234169 -0.012987439 -0.13944457 -0.11686804 0.13542205
0.13672541 0.086434335 0.017154835 0.12315016 -0.12995337 0.07920011 -0.12909055 0.14804378
0.036757257 -0.10378615 -0.10981829 -0.13185517 0.029396938 -0.05561513 0.10768579 -0.057890806
0.031131275 -0.15113214 0.14252864 -0.025144836 -0.060353663 -0.124829955 0.06337413 0.011799183
0.018271197 0.11691082 -0.07060541 -0.02339693 -0.044656064 -0.06156126 0.11116127 0.035189115
-0.039505437 0.019258264 -0.016247692 0.034472294 -0.08252774 -0.12987389 0.13264246 -0.016097821
0.0932421 -0.121421345 0.094411075 0.14642544 0.14434424 0.01277889 0.14913131 0.010570334
-0.12526771 0.12275992 -0.032139048 0.124469735 -0.05068656 0.16053832 -0.09676438 -0.021049948

layers.fc2.weight f4 [128, 128]
00000000: b63e 7bbc 5f17 3f3d 0cee 08bd ff9a fdbb
00000010: 3d66 aebd 49bf ab3d 16b6 87bd 686d 9cbc
00000020: 2af9 1dbd d6ed 53bb 3a7b 23bd 4000 3dbc
00000030: 4c75 973d 72b7 8e3c 3ad7 963d d0d4 cd3b
00000040: 3628 053d 63a3 10bd 6bde a1bd 7fc5 443d
00000050: cf2a 9f3d bef5 b7bd 8832 eabc 3155 49bd
00000060: 07ed 79bd f90c cc3c e0d4 3d3d 7b01 363d
00000070: ddf1 8cbd 1dfb 5bbc 919a efbc 19a6 a2bd
00000080: e678 94bd 42fa 11bd bb25 8e3d f8e2 34bd
00000090: ad67 a93d 0cef bf3c 31bc b4bd f96b 1dbd
000000a0: 1e82 7ebd d010 423d 316d 1b3d e440 863d
000000b0: 8ac0 743d 868a 603d 185f 4d3c 9b8c 9bbd
000000c0: fcaa c03c 72a7 84bd 27e8 663d 521d a3bd
000000d0: 8093 503d 9823 8bbd b852 d9bc 5267 42bd
000000e0: b937 b4bd 97b9 d2bc 0a46 563d f7e9 283c
000000f0: c1d4 9f3d 5789 e9bc cf11 8ebd 1740 99bd
00000100: 9021 8b3c a6dd 253d dc87 18bd 0a0a 113c
00000110: 1d5a ab3d 9dd0 bebc cb95 88bd 6b43 6b3d
00000120: ece5 723d 589b 5d3d 4623 88bd d5fa b6bd
00000130: 555e a23c dbd8 9fbc 0c6f 3fbd 39ae 00bc
00000140: b6ce 39bd 4510 b43c 44e9 563d 63ce 363d
00000150: 7220 4bbc 4553 4abb 1ae9 c43c c6c3 7abd
00000160: e559 db3c ff24 0d3d 9a9e e4bc b5c5 8fbc
00000170: ae9a d9bc 4f8e 953c 681f 5fbc 25b1 b5bd
00000180: 48d6 4bbd a937 55bd a1c4 113b 7e02 543d
00000190: 2d69 46bd 3174 b33b 1b3a a53c 8b57 893d
000001a0: afd1 87bc 17f2 12bd 2a98 b63c 653b 89bd
000001b0: c2c1 253d dce1 da3b f322 84bc 5e38 8c3d
000001c0: ad34 463d f956 bc3c 23b8 61bd 8b51 a93d
000001d0: ebd9 2a3d aa06 abbc 63a4 a7bd 9f79 d13b
000001e0: 0fc7 823d dc5c 593d bc1e 463d bed2 553d
000001f0: 82ad 7a3c fb43 d8bc 0828 53bd c419 b2bd
00000200: 1c06 253c 60f4 113d 3065 873d 3535 5e3d
00000210: 5981 f6bc 0d49 0fbd 005f a7bc cec1 043d
00000220: edff a3bd 6310 bcbc 6274 c3bc 1bbb 8e3d
00000230: 6e4a a2bd 7d8e 4c3d 4560 813d 8d32 0b3c
00000240: 033d 443c 0911 65bd 4265 f4bc 544f 893b
00000250: a4b0 79bd e5d6 9ebd f0cc 013d a0a2 79bd
00000260: 4960 a3bd 7b76 63bd e145 663d 648c af3d
00000270: 19db 87bd 7adc 103c f7ad 23bc de5b 923d
00000280: 7edb 9cbc 3945 9f3d df7e 333d ed4f 9c3d
00000290: 7981 fbbb 20c2 1c3c 1d5b a33d ae63 f0bc
000002a0: acd5 81ba 31ae 08bd 3c21 a2bc 4b25 a23d
000002b0: 598e af3d 88d7 113d bde5 0fbd 1807 f13c
000002c0: 0d2e db3c 209b 5b3d 819c 90bd 006c 613d
000002d0: 9c3c 0a3d d5cd aa3d 6f35 2dbd 000c 94b7
000002e0: 06af 69bd 64c1 363d 8845 023c 3810 393d
000002f0: 06cf 60bd 12ae 47bd a83e a43b b577 4fbd
00000300: 248d 853d 173e ddbc ab42 c4bb 5fed 903d
00000310: f6f5 4e3d 6fe3 6e3d 13aa 933d 20c9 25bc
00000320: 7a5b 86bd 9132 78bd 3677 b53c ac2b 68bd
00000330: 98f4 39bd 086d 9e3d b04b ad3d d360 583d
00000340: d8c3 4ebd 9da7 d5bc ea79 373d 535d 6dbd
00000350: 2c29 9a3b f6ba 913c 6791 94bc e2fe 8b3d
00000360: 9219 b83c 5f9e 86bd c6ba 2a3d 97a5 a43c
00000370: fc2f a43a 1831 573d f9d7 913d 3ff4 0d3d
00000380: 761c 253d 3fcf 6dbc 5a64 863d dfb3 473d
00000390: 6df5 00bd 0d41 9b3c deba 0ebd 3dc4 153c
000003a0: fa1a 913b c3d2 b63d ef67 91bd 32a1 dc3c
000003b0: ddbe 483b c719 4bbd f55f 1f3c 79e3 f4bb
000003c0: 46e0 8abd 3966 373c ac58 023a 90bc 05bd
000003d0: f3e3 b8bc 0f01 ba3c 8381 6b3d 3601 223d
000003e0: b07f 15bc 81b8 26bd f2c3 933d 052b a1bd
000003f0: 9e19 9a3d 8214 a4bb a35c 483c 6137 03bd
-0.015334776 0.046653148 -0.033430144 -0.0077394242 -0.08515594 0.08386094 -0.06626527 -0.019095138
-0.0385677 -0.0032337806 -0.03991244 -0.011535704 0.073954195 0.017421458 0.0736527 0.0062814727
0.03250905 -0.035312068 -0.07903751 0.04803991 0.07771837 -0.089824185 -0.028588548 -0.04915351
-0.061017063 0.02490853 0.04634559 0.044435006 -0.06882069 -0.013426569 -0.029248508 -0.07941837
-0.07249622 -0.035639055 0.0694079 -0.044161767 0.08271728 0.023429416 -0.08824957 -0.03843305
-0.06213581 0.047379315 0.03794593 0.06555346 0.059753932 0.054819606 0.012534879 -0.07595178
0.023519032 -0.0647725 0.05637374 -0.07964577 0.050921917 -0.06793898 -0.026528701 -0.047461815
-0.08799691 -0.025723262 0.05231289 0.010309688 0.078042515 -0.028507872 -0.069369905 -0.07482927
0.016983777 0.040494584 -0.03723894 0.008852491 0.08366797 -0.023292834 -0.06669196 0.05743734
0.0593013 0.054103225 -0.06647353 -0.08934561 0.019820372 -0.019512584 -0.046736762 -0.007854038
-0.04536315 0.021980414 0.052468553 0.04463042 -0.012397872 -0.0030872386 0.024036933 -0.06122186
0.026776263 0.03445911 -0.027907658 -0.017550329 -0.026563015 0.018256335 -0.013618328 -0.08871678
-0.0497649 -0.052055035 0.0022242444 0.05176019 -0.048440147 0.0054764976 0.020169308 0.067061506
-0.016579477 -0.035875406 0.022289354 -0.06700782 0.040467985 0.0066797566 -0.016129946 0.06846689
0.04839008 0.02299069 -0.055107247 0.08267506 0.04171173 -0.020877201 -0.08185651 0.006392672
0.06385624 0.053067073 0.048369154 0.052202933 0.015300157 -0.026399603 -0.05155185 -0.08696321
0.010072257 0.035633445 0.06611097 0.05424996 -0.030090975 -0.034981776 -0.020431042 0.03241139
-0.08007798 -0.022957033 -0.023859207 0.06969281 -0.079243526 0.049940575 0.0631719 0.008495939
0.011977437 -0.05592445 -0.02983344 0.004190365 -0.060959473 -0.07755832 0.031689584 -0.060946107
-0.07977349 -0.055532914 0.056218985 0.08571699 -0.066335864 0.008841628 -0.009990207 0.071464285
-0.01914763 0.07776875 0.043822166 0.07632432 -0.0076753465 0.009567767 0.07976363 -0.029344406
-0.0009905598 -0.033369247 -0.019791238 0.07917269 0.085720725 0.035605937 -0.035131205 0.029422328
0.026755357 0.053614736 -0.07061101 0.055034637 0.033749208 0.083400406 -0.042287286 -1.7648563e-05
-0.05705168 0.044618025 0.007951148 0.045181483 -0.054884933 -0.04874999 0.005012352 -0.05065127
0.06521061 -0.027007146 -0.0059893928 0.07076525 0.050527535 0.058322366 0.072101735 -0.010118753
-0.065604165 -0.0605951 0.02215157 -0.056682274 -0.04539928 0.0773564 0.08461702 0.052826714
-0.05047974 -0.0260809 0.044794 -0.05795033 0.004704615 0.017789345 -0.01813574 0.068357244
0.02247313 -0.06573176 0.041682027 0.02009849 0.0012526507 0.052537054 0.07121272 0.03465676
0.040310346 -0.014514743 0.06562109 0.048755523 -0.031484056 0.018951917 -0.03484618 0.009141025
0.0044282647 0.08926918 -0.07099902 0.026932333 0.0030631342 -0.04958513 0.009727468 -0.007473406
-0.06781058 0.011193805 0.00049723196 -0.03265053 -0.022569632 0.022705583 0.05749656 0.039551936
-0.009124681 -0.0407033 0.07215108 -0.078695334 0.07524417 -0.0050073275 0.012229118 -0.032035235

layers.fc3.weight f4 [40, 128]
00000000: 0475 d8bc f29a 5cbd f8c0 023d 1bc5 143d
00000010: 52b3 3abd 3278 83bd 3383 2f3c 05ec 293d
00000020: 0706 a7bc e52c 2c3d 6254 44bd 0915 f63c
00000030: 4af0 7b3d a65a 34bd 536f d8bc f0d9 87bc
00000040: 911d 3cbd 2cb1 df3c cf2c 453d b337 973d
00000050: 26fa 9a3d 5943 30bd c5ff 18bc 6dca 9c3c
00000060: efcd dc3b 2bc7 8abd 95ba a7bd 37d3 b4bd
00000070: 6a39 603b 2bc8 66bc bd5a 503d 5b19 853d
00000080: 7036 973c a8f6 b23d 9efc 98bd 0ad5 983d
00000090: a3b0 32bd 3137 83bb 7d4c ee3c 8317 29bd
000000a0: d2f0 253d c457 9f3d a1a2 e9bc 5161 973c
000000b0: af84 203d 5c49 8b3c f1f4 3cbd 1566 5b3d
000000c0: fe8f 753c 8615 7abc 1c83 a83d 5371 a4bd
000000d0: 3efc af3d 4c06 6d3d e91c 0dbc d12b 993c
000000e0: afbb 303c 6033 843c 54d5 a9bc c8cf 21bd
000000f0: 17b8 5b3c 18cd a93d 7b2f 3abd a0f8 753d
00000100: 9262 873d b311 3c3c 1d14 91bd bd6a 8bbd
00000110: 742f ebbb 54a7 dd3c 5e5c 713d 3609 763c
00000120: 9794 f93b 9e77 bd3c c6ad c93b 8918 943d
00000130: 013d 23bb 2c79 cf3c 964b 3abd 6e00 abbd
00000140: be87 863c 01fe abbd 81b2 02bd 8e95 8b3d
00000150: 8b23 ccbc 28f1 53bd c973 7fbd 3138 9b3c
00000160: ad00 12bd 2b4a fe3c ecca 973d 2d90 663d
00000170: dbae f0ba d523 d73c d3e1 0fbd 5944 753d
00000180: 8fd6 97bd 0057 e33b a0e2 b2bd 872e 94bd
00000190: 2b85 293d 08ab 38bd 5c1e 873c 8bdd 45bd
000001a0: d71c e9bc 6b24 b0bd 50c4 b2bd 520d 163d
000001b0: c824 533d fdc3 f63c bf23 a13d a9cd 14bd
000001c0: 46d3 95bd a7d7 663d d702 90bd b007 a23c
000001d0: 030a 9fbd 2069 073d 4f47 193c c4ca 01bd
000001e0: eb34 503d 06f4 c03c a39b 013d c601 733c
000001f0: 27cb 393d 509d 173c 8bfa 513d ad2c 46bd
00000200: b65e 783d 768b 863d 31ae 693c e51f 19bd
00000210: fbce 813d 051c f73c 3403 9abd 43ec 31bd
00000220: 9b01 54bc 0bb8 8c3d 2281 08bc 15bc 07bd
00000230: 011e 20bd 3abb 37bd 77a3 97bc 7a4a cb3c
00000240: d42f a73d bfec bf3c 3efc 77bd a549 66bc
00000250: 3a23 ac3c 3eb1 87bd 68b9 a13d 7ffe 2ebd
00000260: c2eb 19bd 1950 9f3d 7ae5 963d 169a 6abd
00000270: 7567 ac3d e929 a9bd 6d12 62bd 3801 753d
00000280: 22fb 9b3d 463d e1bc 8b28 a2bd 6181 b13d
00000290: 0b54 273a c6db af3d c358 13bd 8a0e 3cbd
000002a0: d875 45bc 3c74 9c3d abf9 8c3d 87a6 9abd
000002b0: 15fa 85bd 9a15 d7bc 8620 22bc b2cf dbbb
000002c0: e700 64bc 6037 103d f5ae 60bd 3bee 76bc
000002d0: 593c 6ebd 6eb1 bd3c 3f7c 33bc 2871 f53c
000002e0: 2eac 2bbd 9506 e73b f65a a63d f68f 1ebd
000002f0: 3685 873d f68d 39bd ab96 363d 9fe0 e13c
00000300: d9b1 3f3d 708f a93c 854c a03d eed4 a03d
00000310: 6039 4d3d 3e9e ca3b 2784 c03c e4f1 b63c
00000320: aaa0 8e3c 0e50 8e3c 7c28 acbd 00cc 86bd
00000330: 178a 4abd 17ee 94bd ba8e 873c d4e3 86ba
00000340: addd 5c3c f1e8 9e3d 1ab0 af3d 7954 483d
00000350: 89ee 32bd 31ca 8cbd eda8 aabd 69a4 14bb
00000360: dcf9 5e3d 83a9 51bd 8397 6bbd 38ee 28bc
00000370: 133f e03c 963d 973d 2102 8bbb e7bb 5fbd
00000380: e8f3 073d 7862 3abd 9f8f bb3d e03d 81bd
00000390: fec3 5ebd f815 90bc f349 323d 9856 eebc
000003a0: ff1d 99bd 8e07 8dbd 3a58 563d b71e 93bd
000003b0: 8894 8fbd 3834 39bd 3d60 df3c e3e6 aabc
000003c0: 7cee b03c 9315 94bd c12b 15bd 427c 393b
000003d0: 7c85 af3d 1991 643d c947 bc3d 6088 8c3d
000003e0: 4696 053d c425 b23c 68e2 ecbc 1636 3fbd
000003f0: 2d4c 403d 2270 8dbd e44c 803c d62d ca3b
-0.026422985 -0.053858705 0.03192231 0.036320787 -0.04558117 -0.0641941 0.010712433 0.04148485
-0.020388616 0.042035002 -0.047932036 0.030039327 0.061508454 -0.04403176 -0.026420271 -0.016583413
-0.045926634 0.027306162 0.048138436 0.07383671 0.07567243 -0.043032978 -0.009338324 0.019139493
0.0067384164 -0.067762695 -0.081898846 -0.088293485 0.003421391 -0.01408581 0.050867785 0.06498977
0.018458575 0.08738452 -0.07470058 0.07462509 -0.043625485 -0.004004382 0.029089207 -0.04128219
0.040512867 0.07780412 -0.02851993 0.018479021 0.039189037 0.017002754 -0.04613203 0.05356415
0.014987944 -0.015263921 0.08228132 -0.080294274 0.08593033 0.057867333 -0.00861285 0.018697651
0.010786935 0.016137779 -0.020731606 -0.039504796 0.01341059 0.08291072 -0.045455437 0.06005156
0.06610598 0.011478829 -0.070839144 -0.06807468 -0.0071772877 0.027057327 0.05892598 0.0150168445
0.0076165902 0.023128327 0.0061547486 0.07231242 -0.0024908187 0.025326334 -0.04548224 -0.08349691
0.016422149 -0.08398057 -0.031908516 0.06815635 -0.024919292 -0.051743656 -0.06236628 0.018947693
-0.035645176 0.031041225 0.07411751 0.05628984 -0.0018362658 0.026262203 -0.035127472 0.059879635
-0.07413971 0.0069378614 -0.087346315 -0.07235437 0.041386764 -0.045084983 0.016493969 -0.048306983
-0.028456135 -0.08600696 -0.0872885 0.036633797 0.05154875 0.030122751 0.07868146 -0.036328945
-0.07315688 0.056358006 -0.07031792 0.019779056 -0.077655815 0.03305924 0.00935538 -0.031687513
0.050831717 0.02355386 0.031642567 0.014831966 0.045359757 0.009253815 0.051264327 -0.04838245
0.0606372 0.06569569 0.014262722 -0.037383933 0.063383065 0.030164728 -0.07520142 -0.043438207
-0.012939836 0.06871041 -0.008331569 -0.033138353 -0.039091114 -0.044856288 -0.018510563 0.024815787
0.08163419 0.023428319 -0.06054329 -0.014055644 0.021012891 -0.06625603 0.078966916 -0.042723175
-0.03757835 0.07778949 0.07367988 -0.057275854 0.0841817 -0.08259947 -0.055193353 0.059815615
0.07616259 -0.027495038 -0.07917889 0.08667255 0.0006383068 0.0858684 -0.03597332 -0.045912303
-0.012052022 0.076393574 0.06883558 -0.07551294 -0.0654184 -0.026255418 -0.0098954495 -0.006708109
-0.013916231 0.03520906 -0.054854352 -0.015071447 -0.05816302 0.023155894 -0.010954916 0.029961184
-0.04191225 0.007050345 0.08122818 -0.03871151 0.06617205 -0.0453014 0.044577282 0.027572928
0.046800468 0.02069828 0.07827095 0.07853113 0.050103545 0.0061834147 0.023500515 0.02233214
0.017410595 0.017372157 -0.08406159 -0.06581879 -0.0494481 -0.072719745 0.01654755 -0.0010291287
0.013480586 0.07759274 0.085785106 0.048908684 -0.043684516 -0.068745025 -0.08333001 -0.0022681004
0.054437503 -0.05118705 -0.05751754 -0.010310702 0.027373826 0.073847935 -0.004242197 -0.054622557
0.03319159 -0.045504063 0.09158253 -0.0631063 -0.05438613 -0.0175886 0.043527555 -0.029094025
-0.074764244 -0.068862066 0.052330233 -0.07183593 -0.07010752 -0.045215815 0.02726757 -0.020862048
0.021598093 -0.072306775 -0.03641868 0.0028302823 0.08570382 0.05580244 0.091933794 0.06861949
0.032614015 0.021746524 -0.028916553 -0.04668244 0.046947647 -0.06906153 0.015661664 0.006170015
