trained_models/trained_state_dict.pt (torch, 111866 bytes, 3 tensors)

layers.fc1.weight f4 [128, 40]
0	0x3d9f5a5e	0.07780908
1	0xbc5fd6eb	-0.01366208
2	0x3e148105	0.14502342
3	0x3e037ed8	0.12841356
4	0x3db7f0e8	0.08981496
5	0x3d72cdc5	0.05927827
6	0x3cb83d1d	0.022490079
7	0xbc43b594	-0.011945147
8	0x3d99b7eb	0.07505783
9	0xbd52fd1e	-0.051510923
10	0x3e291e06	0.1651536
11	0xbce8402b	-0.02835091
12	0xbd4a4070	-0.04937786
13	0xbd36b133	-0.044602584
14	0x3d9db6b8	0.077008665
15	0xbcd0d144	-0.02549041
16	0x3dbd92b4	0.09256497
17	0xbd7bff7e	-0.061522953
18	0x3db99521	0.09061647
19	0x3e0d64e7	0.13808022
20	0xbdf2a682	-0.11848165
21	0xbb533f8a	-0.0032233917
22	0x3d1c8100	0.03820896
23	0x3bb092bb	0.0053885854
24	0xbe15475c	-0.14578003
25	0x3c272ea4	0.010203991
26	0xbc347495	-0.011014123
27	0x3ded299f	0.11580204
28	0x3c837ac1	0.016049745
29	0x3e06220c	0.13098925
30	0xbc22f589	-0.009946235
31	0xbdc06800	-0.093948364
32	0x3de46a0c	0.11153039
33	0x3e27267c	0.16323274
34	0xbe16248f	-0.14662383
35	0xbaecf3fa	-0.0018078082
36	0x3d2406d3	0.04004557
37	0xbdde5221	-0.108555086
38	0x3de03573	0.10947695
39	0xbd63c7c1	-0.055610422
40	0x3da070a7	0.07833987
41	0xbe11ee1d	-0.1425099
42	0x3d056f5d	0.032576907
43	0xbda403f3	-0.08008566
44	0x3d5a2608	0.053258926
45	0xbd365381	-0.04451323
46	0x3d2d1219	0.042253587
47	0xbd23f8e4	-0.040032282
48	0x3dab4f1a	0.08364697
49	0x3d7393d8	0.059467167
50	0x3d925c7f	0.071465485
51	0x3e2d48fd	0.16922374
52	0x3e0f9e92	0.14025334
53	0x3e28476e	0.16433498
54	0x3dc23936	0.09483568
55	0xbd9c5693	-0.076337
56	0x3d5e68bf	0.054299112
57	0xbd528f34	-0.0514061
58	0x3b9fa700	0.004872203
59	0xbc880ebb	-0.016608587
60	0xbd8f28cf	-0.069902055
61	0x3d18a922	0.037270673
62	0x3c761863	0.015020463
63	0x3dfd147b	0.12357422
64	0xbd003b48	-0.031306535
65	0x3ca529d1	0.020161541
66	0x3d9c888a	0.0764323
67	0xbd7836a0	-0.06059897
68	0x3de65030	0.11245763
69	0x3d00ecfc	0.031476006
70	0xbd96ce1d	-0.07363532
71	0x3e079955	0.13242085
72	0x3db0a49c	0.08625147
73	0xbe0774c2	-0.13228133
74	0xbdc0da35	-0.0941662
75	0xbb8b709c	-0.0042553674
76	0x3dc564ba	0.09638353
77	0xbd366d32	-0.04453773
78	0x3e165f19	0.14684714
79	0x3d5b0d34	0.05347939
80	0xbd2c82f3	-0.04211707
81	0xbe04d1c5	-0.12970646
82	0x3e1f8f3b	0.15581982
83	0x3dfceb40	0.12349558
84	0x3d366af6	0.0445356
85	0xbaf8610b	-0.001894982
86	0xbdedc2fd	-0.11609457
87	0xbd9a2bce	-0.07527886
88	0xbd3a463c	-0.045477137
89	0xbd4fd9de	-0.050744884
90	0xbdedc645	-0.116100825
91	0x3de3d502	0.111246124
92	0x3d0b2943	0.033974897
93	0xbd9a40ea	-0.075319126
94	0x3dc9519b	0.09830018
95	0xbdaa8127	-0.08325415
96	0x3e04e580	0.12978172
97	0x3d27bf33	0.040953826
98	0xbde46ffc	-0.11154172
99	0x3cf4391a	0.029812384
100	0xbda65c03	-0.081230186
101	0xbdf2b093	-0.11850085
102	0xbd9ca432	-0.07648505
103	0xbe0f1390	-0.13972306
104	0x3cc26f32	0.023734663
105	0x3dd341c1	0.10315276
106	0x3d9e0c4b	0.077171884
107	0xbd9a9f29	-0.07549889
108	0xbc68f30f	-0.014218106
109	0xbd7da67e	-0.061926357
110	0xbe149aa2	-0.14512113
111	0x3dcc3200	0.09970474
112	0xbe16efe4	-0.14739949
113	0x3e0c1701	0.1368065
114	0xbd70895c	-0.058724746
115	0xbb752861	-0.00374081
116	0x3e16255b	0.14662687
117	0xbce7a258	-0.028275654
118	0xbccdfb9b	-0.025144389
119	0xbd206616	-0.039159857
120	0x3ded6c89	0.11592967
121	0x3dcfa6aa	0.101392105
122	0xbdae6974	-0.08516207
123	0x3e0aa0fe	0.13537976
124	0xbd8c8698	-0.06861609
125	0xbc522c5b	-0.012827958
126	0x3dcb3175	0.099215426
127	0xbdbc4096	-0.09192006
128	0x3dd5c635	0.104381956
129	0xbdb56b51	-0.088583596
130	0x3dd27ab6	0.102773115
131	0x3dbb0850	0.09132445
132	0x3ba8e3ad	0.005154094
133	0x3dc893b1	0.09793795
134	0xbd433c95	-0.047665197
135	0x3dbe9e0b	0.09307488
136	0x3cd934c0	0.026514411
137	0x3cc045bc	0.023470752
138	0xbdf16378	-0.1178655
139	0xbdc6c269	-0.097050495
140	0xbe02c31e	-0.12769744
141	0x3cb67619	0.02227311
142	0x3da0cdca	0.07851751
143	0xbdcc3d7b	-0.09972664
144	0xbe0b0d34	-0.13579255
145	0xbe0a8072	-0.1352556
146	0x3df29796	0.11845319
147	0x3d0a9cca	0.033840932
148	0x3d5a0281	0.053225044
149	0xbe1190d3	-0.14215402
150	0xbdd119cc	-0.102099985
151	0xbd291b4c	-0.041285798
152	0xbbc5d80a	-0.0060377168
153	0x3dfecef6	0.124418184
154	0xbe109813	-0.14120512
155	0x3d9f5957	0.07780712
156	0x3dab4dae	0.083644256
157	0xbde0ad32	-0.109705344
158	0xbd5ff3f0	-0.054675996
159	0xbdd3b750	-0.103376985
160	0x3e0d0855	0.1377271
161	0xbdce7fe6	-0.100829884
162	0xbe1441f0	-0.14478278
163	0x3d81afdc	0.06332371
164	0x3d37d455	0.04488023
165	0xbe126b6f	-0.14298795
166	0x3e296486	0.16542253
167	0xbdfd7423	-0.12375667
168	0xbde71c2d	-0.11284671
169	0x3d939cee	0.07207666
170	0x3de33f93	0.1109611
171	0x3d0d4b8d	0.03449588
172	0x3df4ec00	0.11959076
173	0xbe0bd9ad	-0.13657255
174	0xbe106081	-0.14099313
175	0x3e020512	0.12697247
176	0x3df28c42	0.11843158
177	0x3d437425	0.047718186
178	0x3ca91aa5	0.020642588
179	0xbe2f9c8b	-0.1714956
180	0x3dbedc80	0.09319401
181	0x3dc70828	0.097183526
182	0x3dbd7cfb	0.09252354
183	0xbe24977f	-0.16073416
184	0x3d45bf27	0.048278
185	0x3dabf8ed	0.08397088
186	0xbd12ee54	-0.03587182
187	0x3d893312	0.06699194
188	0xbe268412	-0.16261318
189	0xbdda647c	-0.10663697
190	0x3defd6e4	0.11710909
191	0xbde9e54c	-0.11420688
192	0x3d5b16a6	0.053488396
193	0xbbffa703	-0.007801892
194	0xbe0829d1	-0.13297202
195	0x3d6cfd2d	0.057858635
196	0x3dc226a4	0.09480026
197	0xbe037690	-0.12838197
198	0x3db4c682	0.08826925
199	0xbd9dca1a	-0.077045634
200	0xbda8eb83	-0.08248045
201	0x3db9eeff	0.09078788
202	0x3dfdb201	0.12387467
203	0xbde803ae	-0.11328827
204	0xbe17ed09	-0.14836515
205	0x3e00b180	0.12567711
206	0x3d6255e5	0.055257697
207	0xbcfae7c3	-0.03062809
208	0x3d5149aa	0.051095642
209	0xbe17ac96	-0.1481193
210	0x3d763402	0.060108192
211	0xbd8ffca7	-0.070306115
212	0xbe12e379	-0.14344586
213	0x3d2963d8	0.041354984
214	0x3b8dd231	0.0043280353
215	0x3e16821b	0.14698069
216	0xbd15d1fe	-0.036577217
217	0xbdab8edc	-0.08376858
218	0xbd288f0e	-0.041152053
219	0x3b4190e3	0.0029535822
220	0x3cbddd41	0.023176791
221	0x3d0061a5	0.03134312
222	0xbd771c0f	-0.060329493
223	0x3d9bfc9d	0.076165415
224	0x3de7d67a	0.11320205
225	0x3da7909e	0.081818804
226	0xbd9eada1	-0.07747961
227	0x3dc0f986	0.09422593
228	0xbe240d0b	-0.160206
229	0x3d50a2c1	0.050936464
230	0x3d4c1bba	0.04983113
231	0xbdf66e3d	-0.12032745
232	0xbe01b79c	-0.12667698
233	0x3c164bbe	0.009173332
234	0x3d9fd8c9	0.0780502
235	0xbe04b5b9	-0.12959947
236	0xbdf67cc6	-0.120355174
237	0xbdd2c50f	-0.10291492
238	0x3d572b31	0.052531425
239	0xbe0381dd	-0.12842508
240	0xbdf3233a	-0.11871953
241	0xbd17890d	-0.036995936
242	0xbd5743dc	-0.05255495
243	0x3e0bac0a	0.13639846
244	0xbd79e6de	-0.061011188
245	0x3df168d1	0.1178757
246	0xbd83c80f	-0.064346425
247	0xbd9cd749	-0.0765825
248	0x3ad3169e	0.0016104763
249	0x3dff06d6	0.12452476
250	0x3e237cfd	0.15965648
251	0xbd8aa588	-0.06769854
252	0xbe0710dc	-0.13190025
253	0x3e0a71a0	0.13519907
254	0xbdbca800	-0.09211731
255	0x3cc4a424	0.02400405

layers.fc2.weight f4 [128, 128]
0	0xbd32afa8	-0.04362455
1	0x3cffa99d	0.031208808
2	0xbc006177	-0.007835737
3	0xbd8be315	-0.06830422
4	0x3d9fb30a	0.07797821
5	0x3d8fe297	0.070256405
6	0x3d3b686b	0.045753878
7	0xbd946436	-0.07245676
8	0x3ca99b52	0.020703945
9	0x3d2d2320	0.042269826
10	0x3c125da7	0.008933461
11	0xbc93559d	-0.01798516
12	0xbd72b56d	-0.059255052
13	0xbd293b7d	-0.041316498
14	0xba16b031	-0.00057483005
15	0x3d69c589	0.05707315
16	0xbdb2115f	-0.086947195
17	0x3c8aac0f	0.016927747
18	0x3d265110	0.04060465
19	0x3da0d026	0.07852201
20	0xbdb51e8e	-0.088437185
21	0x3d96d7a9	0.07365353
22	0xbdada818	-0.08479327
23	0xbd673dc1	-0.056455377
24	0xbcb659ab	-0.022259554
25	0xbc329490	-0.010899678
26	0xbd3ff7ca	-0.04686717
27	0x3d1c02a8	0.03808847
28	0x3d3ab2e0	0.045580745
29	0x3d448562	0.047978766
30	0xbcdd61e9	-0.027024226
31	0x3d9ba21a	0.07599278
32	0xbd26968d	-0.04067092
33	0x3da3705c	0.07980415
34	0xbd99bd41	-0.075068004
35	0xbd233cb4	-0.039852813
36	0x3d806103	0.062685035
37	0xbd4c5dbc	-0.04989408
38	0x3ca242da	0.019807268
39	0x3ca5cdb1	0.020239683
40	0x3daab73e	0.08335732
41	0x3d6de175	0.05807634
42	0x3d2709cc	0.040780827
43	0x3d91a202	0.07110979
44	0xbcc78e68	-0.024359897
45	0x3daa4c5a	0.08315344
46	0x3d3df395	0.046374876
47	0xbd47490b	-0.048653644
48	0x3d8dbc58	0.06920689
49	0x3d346c9f	0.0440489
50	0xbcbdfb39	-0.023191081
51	0x3d37c33f	0.044863936
52	0xbda25170	-0.07925689
53	0xbda907fd	-0.08253477
54	0xbd327d33	-0.04357643
55	0x3d445e71	0.04794163
56	0x3cd084a6	0.025453877
57	0xbdb4a08d	-0.08819685
58	0x3ceef00a	0.029167194
59	0xbd89624b	-0.06708201
60	0xbce088e9	-0.027409034
61	0xbc0dc0ea	-0.008651951
62	0xbdbbe89e	-0.091752276
63	0xbda3054f	-0.07959997
64	0x3d556642	0.052099474
65	0x3ca5a00c	0.020217918
66	0x3d98f004	0.07467654
67	0x3d8cb790	0.06870949
68	0xbccfa167	-0.025345517
69	0x3d9101fd	0.07080457
70	0x3d9951d1	0.07486308
71	0xbcc24628	-0.023715094
72	0x3c30aa52	0.010782795
73	0xbd1d9c43	-0.0384791
74	0xbb864d8f	-0.004098601
75	0x3d65bf24	0.05609049
76	0xbc6d6317	-0.014488957
77	0x3c3560de	0.011070458
78	0x3b3e3eeb	0.0029029201
79	0x3da5bc49	0.08092553
80	0xbd8f6016	-0.07000749
81	0x3a537eea	0.0008067923
82	0x3cd31bac	0.02577003
83	0xbbd00f12	-0.006349453
84	0xbdaf1c4e	-0.085503206
85	0xbd164855	-0.036690075
86	0xbd96e28f	-0.07367431
87	0xbd47415c	-0.048646316
88	0xbd8f46ec	-0.06995949
89	0x3d9c125a	0.07620688
90	0xbd10eaee	-0.035380296
91	0xbd99eade	-0.075155005
92	0xbd104fc3	-0.035232317
93	0x3d77c267	0.06048813
94	0x3cbb4baf	0.022863237
95	0xbdabadc2	-0.08382751
96	0xbd544d96	-0.051831804
97	0x3cca2f93	0.024680888
98	0xbdb3d9e2	-0.08781792
99	0xbc275750	-0.010213688
100	0x3cf34ff2	0.029701207
101	0x3d72cb28	0.059275776
102	0xbc67e04f	-0.0141526
103	0x3bfa739a	0.0076431753
104	0x3c886440	0.016649365
105	0x3c439a4f	0.0119386455
106	0xbd1a6373	-0.0376925
107	0xbd30df19	-0.043181513
108	0xbcebfd08	-0.028807178
109	0xbda4d2ec	-0.08048043
110	0xbd109009	-0.035293613
111	0x3d574275	0.052553613
112	0x3cc0b62b	0.023524364
113	0x3d3a71e1	0.04551876
114	0x3a9d4926	0.0011999949
115	0x3d107fd3	0.035278153
116	0xbd7150c5	-0.05891492
117	0x3b0285e5	0.0019916233
118	0x3d5eed19	0.054425333
119	0xbccc1d4e	-0.024916317
120	0xbda4d1ac	-0.08047804
121	0xba1483be	-0.0005665383
122	0x3da9bc4b	0.08287867
123	0xbce00abd	-0.02734887
124	0x3d85c73e	0.06532143
125	0xbd56d72c	-0.052451298
126	0x3d0ab5a2	0.033864625
127	0x3da8b29e	0.082371935
128	0x3a1fa6fb	0.00060902507
129	0xbbf3fab3	-0.007445657
130	0xbcbdaf2b	-0.023154816
131	0xbd23c0c9	-0.039978776
132	0x3c764756	0.015031656
133	0x3d4dc1be	0.050233595
134	0xbbdbfa6b	-0.0067132018
135	0xbd7d9790	-0.06191212
136	0x3b1e0c3a	0.0024116174
137	0x3da160d8	0.078797996
138	0xbd9c3c6f	-0.07628714
139	0xbda4f317	-0.08054178
140	0x3cd5a15c	0.026077919
141	0x3da91d3b	0.082575284
142	0x3c31e820	0.010858566
143	0x3cf14aaf	0.029454557
144	0x3c40b70e	0.011762394
145	0x3d87c208	0.066288054
146	0x3d9ebcaf	0.07750832
147	0x3d91e720	0.07124162
148	0xbce2ffed	-0.027709926
149	0xbd291823	-0.041282784
150	0xbccc1449	-0.024912016
151	0x3c8f9a18	0.017529532
152	0xbd7d540a	-0.061847724
153	0xbbd3f987	-0.006468955
154	0xbc8d3857	-0.017238779
155	0x3b936617	0.004498254
156	0xbd348198	-0.044068903
157	0xbba10725	-0.004914182
158	0x3c83fa0f	0.016110448
159	0xbd1060b7	-0.035248484
160	0xbd3c461f	-0.04596531
161	0x3c5fd955	0.013662656
162	0xbb84bd29	-0.00405087
163	0xbd0e2f24	-0.034712926
164	0x3c802423	0.015642231
165	0x3d17db22	0.037074216
166	0xbdad8597	-0.08472746
167	0xbc39928f	-0.011326446
168	0xbc9b9523	-0.018992012
169	0x3daeac2f	0.08528935
170	0x3bd224c0	0.0064130723
171	0x3da04171	0.07824982
172	0xbd967fae	-0.07348572
173	0x3b81e983	0.0039646043
174	0x3cab30b2	0.020897243
175	0x3d9b75d0	0.0759083
176	0x3d6ee0a5	0.058319706
177	0xbc895903	-0.016766077
178	0x3b0d2b74	0.0021540793
179	0xbd091a5a	-0.033472396
180	0xbd536517	-0.05161008
181	0x3c828577	0.015932782
182	0x3d853dac	0.065059036
183	0xbd07d222	-0.033159383
184	0xbc85eb41	-0.01634753
185	0xbd86ce50	-0.0658232
186	0x3bda9cf7	0.0066715437
187	0x3d68361b	0.056692224
188	0xbd8b97ba	-0.06816049
189	0xbdaf4578	-0.08558172
190	0x3d0badf1	0.03410143
191	0xbd22af63	-0.039718043
192	0xbce61fb3	-0.028091287
193	0xbc4fb0f1	-0.012676463
194	0x3d811618	0.06303042
195	0xbcaaa904	-0.020832546
196	0xbc35c31e	-0.011093883
197	0x3ce1b206	0.027550709
198	0xbcf720d0	-0.030167013
199	0xbb737450	-0.0037148185
200	0x3cd7d3bf	0.026346086
201	0xbda79d43	-0.08184292
202	0x3d457f53	0.04821713
203	0xbce4305f	-0.027855096
204	0xbb298c71	-0.0025871063
205	0xbcc58037	-0.02410899
206	0x3db533c4	0.08847764
207	0xbc3713f4	-0.011174191
208	0xbc0e7960	-0.00869593
209	0x3d1e7409	0.03868488
210	0x3db948e8	0.09047109
211	0xbdacbf35	-0.08434907
212	0xbd074fc8	-0.03303507
213	0x3d6ce272	0.057833143
214	0x3ab745b7	0.0013982569
215	0x3d87f217	0.06637972
216	0xbdb0151f	-0.085977785
217	0x3d053e82	0.032530315
218	0xbd2f3bc2	-0.0427816
219	0xbc368507	-0.011140115
220	0x3d3ddf3c	0.04635547
221	0x3d9eb399	0.07749099
222	0x3cfb92c6	0.030709635
223	0x3ce8b166	0.028404903
224	0xbd812cbb	-0.0630736
225	0x3dad3e1d	0.08459113
226	0xbca9df80	-0.020736456
227	0x3c8fbc07	0.017545713
228	0xbdac31b9	-0.08407921
229	0xbd7007e1	-0.058601264
230	0xbd6e3a26	-0.058160923
231	0xbd634344	-0.05548407
232	0x3da81e8a	0.0820895
233	0x3c9203f6	0.017824154
234	0x3d95ed14	0.0732061
235	0xbd53733f	-0.05162358
236	0xbcc191e5	-0.023629138
237	0xbce78f52	-0.028266583
238	0xbb9ff141	-0.0048810546
239	0x3d899622	0.06718089
240	0x3d42ba4f	0.04754096
241	0x3cb26beb	0.021779975
242	0xbd09c078	-0.033630818
243	0xbd4b22ad	-0.049593616
244	0x3d021eca	0.031767644
245	0xbd42b2c7	-0.047533777
246	0xbd145dc1	-0.036222223
247	0xbd6b61e5	-0.057466406
248	0x3ce39368	0.02778025
249	0xbd0e3c74	-0.03472562
250	0xbd039aa6	-0.032129906
251	0x3d8fb198	0.07016295
252	0xbd58c72e	-0.052924328
253	0x3ba70512	0.00509704
254	0xbc0f1a10	-0.008734241
255	0x3db48bd5	0.08815733

layers.fc3.weight f4 [40, 128]
0	0x3d143aec	0.036189005
1	0x3d779b90	0.06045109
2	0xbd7eff76	-0.062255345
3	0x3dbb31ae	0.09140335
4	0xbd1b4141	-0.037904028
5	0x3d5750b3	0.052567195
6	0xbd800694	-0.06251255
7	0xbd9975ae	-0.07493149
8	0x3daeb39e	0.08530353
9	0x3d1afda4	0.037839547
10	0xbd6a5ea0	-0.057219148
11	0xbd5c8163	-0.05383433
12	0x3c57e0d2	0.01317616
13	0x3d0c6df0	0.034284532
14	0xbd849334	-0.06473389
15	0x3d7a00bc	0.061035857
16	0x3d228d51	0.03968555
17	0xbd91362f	-0.07090413
18	0xb9dcdbf2	-0.00042125542
19	0x3cb6003d	0.02221691
20	0x3c95e1cf	0.01829615
21	0xbc7835ba	-0.015149528
22	0xbc833c7b	-0.01602005
23	0xbb6343e8	-0.0034677926
24	0xbd07867b	-0.033087235
25	0x3b7227fa	0.0036950097
26	0x3dafee4c	0.085903734
27	0x3d2f2f60	0.04276979
28	0x3d5abd84	0.053403392
29	0xbd9742c3	-0.07385781
30	0xbd9ddc4b	-0.07708033
31	0xbd86418f	-0.06555473
32	0xbd0e9844	-0.03481318
33	0x3d823037	0.063568525
34	0xbd4522be	-0.048128836
35	0x3ca9176d	0.020641053
36	0x3cf7b0e9	0.030235725
37	0x3da804cc	0.0820404
38	0xbc0d5758	-0.008626781
39	0xbd8ce8aa	-0.06880315
40	0x3c010449	0.007874557
41	0xbd9849c2	-0.07435943
42	0xbd0b1da6	-0.03396382
43	0x3bc892c2	0.0061210105
44	0x3db0b594	0.08628383
45	0x3d26a63d	0.04068588
46	0xbd00b185	-0.031419296
47	0x3c42d0cd	0.011890602
48	0x3d9ebaf5	0.07750503
49	0xbd17fc4f	-0.037105855
50	0x3d317f41	0.04333425
51	0x3d5aa643	0.053381216
52	0xbd0bc8a4	-0.034126893
53	0x3d1e3ea2	0.03863395
54	0xbd2a0813	-0.041511606
55	0xbd841b67	-0.06450539
56	0xbd0406fc	-0.032233223
57	0x3bf74d1a	0.007547033
58	0xbd456a05	-0.04819681
59	0xbd6d4f2c	-0.057936832
60	0xbc5cf1da	-0.013485396
61	0x3d357526	0.044301175
62	0x3c5c3b49	0.013441869
63	0x3d83baed	0.06432138
64	0xbd8aca6a	-0.06776889
65	0xbccef641	-0.025263907
66	0x3d693082	0.056931026
67	0xbc5d62a2	-0.013512285
68	0x3d9f030f	0.07764255
69	0x3db3eb5b	0.08785125
70	0xbd81ca0b	-0.06337365
71	0x3c037a48	0.00802476
72	0x3c9e2dc5	0.019308934
73	0x3d935ad8	0.071950614
74	0x3d02c164	0.031922713
75	0xbd172c21	-0.03690732
76	0x3d9323c6	0.071845576
77	0xbb510e8e	-0.0031899544
78	0xbcea8946	-0.02862991
79	0x3d534798	0.05158195
80	0x3bbb6001	0.0057182317
81	0xbda4a5c9	-0.080394335
82	0x3d82b35d	0.06381867
83	0xbc8f87ca	-0.017520804
84	0xbd48b36b	-0.04899923
85	0x3d6cf23b	0.057848196
86	0x3d9798f9	0.07402224
87	0x3d051b96	0.03249701
88	0x3c13b99b	0.00901642
89	0xbd79054c	-0.060796067
90	0xbc04ac79	-0.008097761
91	0x3d7095c4	0.058736578
92	0xbc9ceaa9	-0.019154863
93	0xbd4c1248	-0.04982212
94	0x3ca23a30	0.019803137
95	0x3aa014d5	0.001221324
96	0x3d1704c0	0.036869764
97	0xbd6891a9	-0.056779537
98	0xbd7995c7	-0.060933854
99	0x3d6b1545	0.05739333
100	0xbd3b679f	-0.045753118
101	0x3d882752	0.06648125
102	0xbc91f853	-0.017818606
103	0xbd9afa44	-0.07567266
104	0x3ce0022f	0.027344791
105	0xbd0b2b85	-0.03397705
106	0xbd9620b7	-0.073304586
107	0x3da0fdc5	0.07860903
108	0x3c909433	0.017648792
109	0x3cbabacd	0.022794152
110	0xbda408a1	-0.08009458
111	0xbd29fa54	-0.041498497
112	0x3ca7765f	0.020442186
113	0xbd9b85d5	-0.07593886
114	0x3da81c50	0.08208525
115	0x38ba606c	8.887131e-05
116	0xbd91d13e	-0.07119988
117	0xbd1330c3	-0.035935175
118	0xbd359eac	-0.044340774
119	0x3d85db6b	0.06535991
120	0x3d62c394	0.0553623
121	0x3c90b550	0.017664582
122	0x3d1420ae	0.03616398
123	0xbd471ef6	-0.04861351
124	0x3c94190f	0.018078355
125	0x3cc41306	0.023934852
126	0x3d95aede	0.07308744
127	0x3d2ea0ca	0.04263381
128	0x3cde0f03	0.027106768
129	0xbca75168	-0.02042456
130	0x3beaf6f2	0.0071705515
131	0xbda66471	-0.081246264
132	0xbd90498a	-0.070452765
133	0x3d36b1b1	0.044603053
134	0x3c9c522a	0.019082148
135	0xbd71b9b6	-0.059015
136	0x3dba1d6f	0.09087645
137	0x3da6f8af	0.081529014
138	0x3d7577ea	0.059928812
139	0xbda4f1c3	-0.08053925
140	0xbda51e52	-0.08062424
141	0x3d5abcb9	0.053402636
142	0xbcb1f5d0	-0.021723658
143	0xbd2e427a	-0.042543866
144	0xbd30985a	-0.043114044
145	0x3cb499ee	0.022046056
146	0x3db4ac38	0.088219106
147	0xbcbd62ae	-0.023118343
148	0xbd063d34	-0.03277321
149	0xbd0048c8	-0.03131941
150	0xbd69e0ae	-0.057099037
151	0x3cf712ce	0.030160334
152	0x3d59a8da	0.053139545
153	0x3d7a59d0	0.061120808
154	0xbd29ca9d	-0.041452993
155	0x3d1ac403	0.037784588
156	0xbd0eea7a	-0.034891583
157	0xbd79840e	-0.060916953
158	0x3cf2ac25	0.0296231
159	0x3d04832d	0.03235166
160	0xbd922f14	-0.07137886
161	0xbcba4b43	-0.022740966
162	0x3b4005e4	0.0029300386
163	0xbd1adb3b	-0.03780673
164	0x3cb81372	0.02247021
165	0xbd59a0f9	-0.05313203
166	0x3d8de140	0.06927729
167	0x3d90f1d5	0.07077376
168	0xbc4514ff	-0.012028932
169	0x3d28ffc8	0.041259557
170	0xbd0549d9	-0.03254113
171	0xbd78d998	-0.06075439
172	0x3ceffc94	0.029295243
173	0x3c2913f7	0.010319701
174	0x3d46d073	0.048538636
175	0x3da79c19	0.0818407
176	0xbd6e5940	-0.058190584
177	0x3c9e8bcc	0.01935377
178	0xbd9bfd2d	-0.07616649
179	0x3da5dec5	0.080991305
180	0xbd59b10b	-0.053147357
181	0xbd634243	-0.055483114
182	0xbce02f98	-0.027366444
183	0x3c4685ee	0.012116892
184	0x3d53e107	0.051728275
185	0x3d233d22	0.039853223
186	0x3c9c7bd4	0.019102015
187	0x3d071865	0.03298225
188	0x3d8a82ae	0.067632064
189	0x3d318789	0.043342147
190	0x3c821866	0.015880775
191	0xbd8d0d27	-0.06887274
192	0xbd78bc2b	-0.060726326
193	0xbc99be7d	-0.01876759
194	0x3af2aa66	0.0018513917
195	0x3d7c6747	0.06162193
196	0x3d834de8	0.06411344
197	0x3cf42a52	0.029805336
198	0xbce39324	-0.027780123
199	0x3d1befb4	0.038070396
200	0x3d053479	0.032520745
201	0x3c5d9526	0.013524329
202	0xbd9be6b0	-0.076123595
203	0x3d23ca1d	0.039987672
204	0x3c0459de	0.008078067
205	0x3c948f87	0.018134845
206	0xbd7c4f91	-0.061599318
207	0xbc6f5f08	-0.01461006
208	0x3d2e7a0a	0.042596854
209	0xbd8294ed	-0.063760616
210	0xbbbc6cff	-0.005750298
211	0xbd9e85fb	-0.077403985
212	0xbd532108	-0.051545173
213	0x3ba03a9c	0.0048897993
214	0xbd171500	-0.03688526
215	0xb9afd97b	-0.00033540637
216	0xbd0667fc	-0.03281401
217	0xbcb821e4	-0.022477098
218	0xbc42be86	-0.011886245
219	0x3c205f84	0.009788398
220	0xbd318f7e	-0.043349735
221	0x3d759675	0.05995794
222	0xbd48b707	-0.049002673
223	0xbcbe25e8	-0.023211434
224	0x3d0f2448	0.03494671
225	0xbd40416f	-0.046937402
226	0x3c9bb862	0.019008819
227	0x3d77c45e	0.060490005
228	0x3bee43b3	0.007271254
229	0x3bbfbf33	0.00585165
230	0xbd7937f0	-0.06084436
231	0xbd3e3830	-0.046440303
232	0x3c9a88fb	0.018864146
233	0xbd7a6aee	-0.061137132
234	0x3c9351e7	0.01798339
235	0x3d98fc68	0.07470018
236	0x3daeadcf	0.08529245
237	0x3daad2a9	0.083409615
238	0x3ce6908b	0.028145095
239	0xbd2f8644	-0.042852655
240	0xba00c653	-0.0004912365
241	0xbd82e48e	-0.063912496
242	0x3c5384a7	0.012910045
243	0xbd85bd27	-0.065302186
244	0x3c8b14e8	0.016977742
245	0x3cef211f	0.029190598
246	0x3baa0b90	0.0051893666
247	0x3a033955	0.00050057966
248	0x3d03bdf1	0.032163564
249	0x3d93b9b0	0.072131515
250	0x3d684cba	0.056713797
251	0xbae8046c	-0.0017701513
252	0xbd922668	-0.07136232
253	0x3cecba69	0.028897481
254	0xbcfc57ed	-0.030803645
255	0xbd0df0c9	-0.03465346
