trained_models/trained_state_dict.pt (torch, 111866 bytes, 3 tensors)

layers.fc1.weight f4 [128, 40]
000000 b5 6d 13 bd b2 13 e7 bd 70 c5 51 bd f8 c9 a3 3d
       -0.035993297 -0.112830535 -0.05121368 0.07997507
000010 65 55 d4 bd ea 01 fa 3d c5 56 0c be ea c9 99 3d
       -0.1036785 0.12207396 -0.13704975 0.07509215
000020 8a 4c 07 be 9f d4 08 3c 38 5e 42 3d e4 0a b7 bd
       -0.13212791 0.008351474 0.047453135 -0.08937624
000030 c8 21 49 3b 83 55 0b be 73 c8 91 bb 06 33 12 3d
       0.0030690301 -0.13606839 -0.0044489442 0.03569319
000040 b9 31 90 bc e5 e1 67 3c 57 e1 24 bd 49 e3 c3 3d
       -0.017601835 0.014152979 -0.040253963 0.095648356
000050 a7 3c 8a bc 79 61 32 bd 88 d0 51 3d 11 c3 e8 3c
       -0.016874624 -0.04354999 0.05122426 0.028413327
000060 83 21 80 3d 55 16 1c be 8a cc fb 3d 3f 7f 0e 3d
       0.06256392 -0.15242894 0.12294872 0.03478932
000070 62 b2 c5 bc d1 46 f9 bd 87 5b 6c 3d 0d b1 dd bc
       -0.024132911 -0.1217171 0.057704475 -0.027061963
000080 50 9b 90 3a f0 d3 fd bd d9 82 d0 3d e0 43 d7 bd
       0.0011032615 -0.123939395 0.10181207 -0.10510993
000090 ec f3 ff 3d 57 eb d3 3d f8 72 10 bd 6d 80 e5 bc
       0.12497696 0.10347622 -0.035265893 -0.02801534
0000a0 1f 56 ac bd 3f b8 ad bd 47 d9 15 be 9f a1 08 bd
       -0.08414864 -0.08482408 -0.14633666 -0.03335726
0000b0 d1 20 9f bb b6 71 b3 bc c8 ae 14 3e 4a 4c cf 3d
       -0.004856207 -0.021904808 0.14519799 0.10121973
0000c0 42 17 c3 3c 56 31 fc 3d f5 b4 9b bc 6e f7 f3 3d
       0.023814801 0.123140976 -0.019007185 0.11912428
0000d0 f7 2b b2 bd 5c 01 c4 3d f7 a5 7b bc 81 ba 31 3d
       -0.08699792 0.09570572 -0.015359393 0.043390755
0000e0 50 a8 0d 3b 06 0f c8 bc b6 02 01 be 27 f8 8b bd
       0.0021615215 -0.024421226 -0.1259869 -0.06834441
0000f0 65 56 ef bd 63 a0 90 bd 7e 1d c5 bc 1c b1 10 3e
       -0.116864 -0.07061841 -0.024061915 0.14130062
000100 ea 08 ce bd 5a 46 f0 3c f0 d0 a1 3c 8d 5a b6 bd
       -0.10060294 0.029330421 0.01975295 -0.0890399
000110 8c 71 04 be 03 58 25 3e dd 92 e7 bd 44 00 72 3b
       -0.1293394 0.16146855 -0.11307309 0.0036926428
000120 95 13 ca 3d 2b e8 26 3c 0c 55 02 3e fe 73 9a 3c
       0.09867016 0.010187189 0.12727755 0.018854138
000130 1e b3 b5 bd fa 9f b0 3d dd 68 f4 3d 66 6b ba 3d
       -0.088720545 0.08624263 0.119340636 0.09102516
000140 77 22 92 bd 18 6b f3 bd 1f 07 37 bc 2f ed b0 3d
       -0.0713548 -0.11885661 -0.011171131 0.08638989
000150 d0 e5 38 3d b1 db 03 be 8b b9 1a 3e f5 90 a9 3c
       0.04514104 -0.12876774 0.15109842 0.020699004
000160 43 40 25 3e df fd 9e 3d c9 49 6c bc ef 14 60 bd
       0.16137795 0.07763266 -0.014421889 -0.054707464
000170 e4 e1 99 3a e8 f4 45 bc ed 18 14 3c 95 76 c0 3d
       0.0011740294 -0.012082316 0.009039146 0.09397618
000180 76 1e a9 3c 2f 48 ca 3c f3 ff db bd 29 22 e5 3d
       0.020644408 0.024692623 -0.10742178 0.11188156
000190 cb 46 9d bd 8a e6 ff bc ff c1 d8 3c e7 69 12 3c
       -0.07679518 -0.03123786 0.026459692 0.008936382
0001a0 44 9f 97 3c 85 84 86 bd 4c a7 1f 3e 23 1c e5 3c
       0.018508561 -0.06568245 0.15591162 0.027967518
0001b0 77 b1 1e be 88 70 ec 3d 49 1d a2 bd 51 83 7e bd
       -0.15497385 0.11544901 -0.07915742 -0.06213695
0001c0 f8 65 a9 3d f3 2f 2c 3d 48 d2 0e be 80 ab 22 be
       0.08271402 0.042037915 -0.13947403 -0.15885735
0001d0 3d d7 37 3d 35 4d 9e 3d bb 01 10 3c 14 38 80 bc
       0.044883 0.0772957 0.008789475 -0.01565174
0001e0 5e 6e ce 3d a5 c3 25 3d 88 fa 08 3d 65 c4 d0 bd
       0.100796446 0.040469784 0.03344205 -0.10193709
0001f0 ad 3b 56 bd ac ba 8f 3d 56 28 3d bd ca df ab bd
       -0.052303005 0.07018027 -0.046181045 -0.08392294
000200 cb 9f de 3d d9 e9 40 3d 56 7a cf 3d 07 5a 33 3d
       0.10870322 0.047098015 0.101307556 0.04378703
000210 c1 f9 0a 3d 64 72 f6 3d 8c 64 74 ba 27 26 13 be
       0.03392959 0.12033537 -0.0009322844 -0.14370023
000220 9a 49 08 3e 96 8b 8d bd 99 7c 64 3d ca c0 66 bd
       0.13309327 -0.069113895 0.055782888 -0.0563362
000230 c5 da 9a bd 30 22 e3 3d 7c 89 cb 3d 06 2e 1e 3d
       -0.07561258 0.11090505 0.099383324 0.03861811
000240 f9 4f a7 3d 56 9a e3 bd 99 cd 22 bd 60 b3 ba 3d
       0.081695504 -0.111134216 -0.039746854 0.09116244
000250 0e 42 6f 3c 63 b3 77 3d 2e 1b 79 bd 13 e6 00 3e
       0.014603151 0.06047381 -0.060816936 0.12587766
000260 94 15 21 be cc bf 49 bc d4 41 ef bc 3f 2c 1c be
       -0.15730888 -0.012313794 -0.029206194 -0.15251254
000270 dd 27 04 3e 92 5d 9a bd f9 4a 1e 3d 6a 13 d5 bd
       0.12905832 -0.07537378 0.03864572 -0.104040936
000280 be f2 a3 3d e3 fe f3 bd 7c 67 45 bd 59 25 87 bd
       0.08005284 -0.1191385 -0.048194394 -0.065989204
000290 dd d6 dc bd 2b 6c 09 be f6 ba 33 3c 65 b1 29 3d
       -0.107831694 -0.13420169 0.010969868 0.041428942
0002a0 8c 49 6a bd e8 c7 da 3d 57 37 b7 bd 5d b8 e1 3d
       -0.057199046 0.1068266 -0.08946102 0.11021493
0002b0 d5 fa 11 3e d0 9f ee 3d cf 32 2f 3c e3 22 62 3d
       0.14255841 0.116515756 0.010693266 0.05520905
0002c0 23 6a e8 bc d8 00 cb 3c 06 f3 3d bd 52 38 57 3d
       -0.028370922 0.024780676 -0.046374343 0.052543946
0002d0 65 84 16 3d 20 3e 0c be c4 4b f5 3d e1 84 c2 3d
       0.036747355 -0.13695574 0.11977342 0.09498001
0002e0 76 9a ac 3d 0e 9b b7 3b ed f9 a7 3d 6b d1 e6 bd
       0.084278986 0.0056032008 0.082019664 -0.11270412
0002f0 1b 7d 8a 3d 7f 7a 82 3d 7f b5 b3 bd 74 50 bb bd
       0.06762143 0.063710205 -0.08774852 -0.091462046
000300 4a b5 e5 3d 64 9b 0e 3e 5d f9 54 3d 09 0c c1 bd
       0.11216219 0.13926464 0.051995624 -0.09426124
000310 df f8 12 be 89 3b d9 bc 6b 49 02 be a3 bb c2 3d
       -0.1435275 -0.026517646 -0.12723319 0.09508445
000320 ef 19 d4 3d fb 2c e9 bd 8f 01 55 bd 58 61 5c 3c
       0.10356509 -0.113855325 -0.05200344 0.013450943
000330 87 ea 0d 3e cb be 99 bd ab d2 5a 3d 20 29 cf 3d
       0.13858996 -0.07507094 0.053423565 0.10115266
000340 e5 1d 11 3d c0 aa f3 bd 24 28 28 bd 2a 86 f2 bc
       0.0354289 -0.11897802 -0.041053906 -0.02960499
000350 47 d6 a4 3d a8 bc f3 3d c8 b9 a4 3d 6c 31 00 3c
       0.08048683 0.11901218 0.080432475 0.007824283
000360 04 bf 7a bd 5b 48 d4 3d 8c 2d 19 3e 82 e0 87 bd
       -0.061217323 0.10365363 0.14958781 -0.06634618
000370 80 53 db 3d 73 7b 3e bd 67 5c fa bd eb d2 2c 3d
       0.10709286 -0.04650445 -0.122246556 0.042193335
000380 eb 70 d8 3d 3c 56 24 3d 38 76 11 3e ce 37 40 bd
       0.105684124 0.040121302 0.14205253 -0.04692822
000390 f0 f8 1a be 83 97 17 be fe e3 91 bd 13 8d ca 3d
       -0.15134025 -0.14803891 -0.07123564 0.09890189
0003a0 f9 20 6b 3d f8 91 a3 bd 9c a7 c8 3d e3 12 dd 3d
       0.057404492 -0.07986826 0.09797594 0.10794618
0003b0 70 ad f1 bd f7 03 b5 bd 29 bd 20 bd ae 80 92 3d
       -0.11800659 -0.08838647 -0.039242897 0.0715345
0003c0 f9 89 06 3e a5 f8 79 3d 1f b3 ff 3d 6f 01 07 3e
       0.1313857 0.06102814 0.124853365 0.1318414
0003d0 f4 b2 fa 3d 64 be bf 3d 8d b5 d6 bd 8f 61 f6 3d
       0.12241164 0.09362486 -0.10483847 0.120303266
0003e0 f7 15 7e 3d 26 49 ca bb 03 c6 93 3d 47 29 00 bc
       0.062032666 -0.0061732708 0.07215502 -0.007822341
0003f0 f8 12 ed bd 69 d2 3d 3d b4 e6 be 3d 95 10 01 3e
       -0.115758836 0.04634324 0.09321347 0.12603982

layers.fc2.weight f4 [128, 128]
000000 80 1f 74 3d d4 89 dc ba b9 33 6e bd 4b 45 8f bd
       0.059600353 -0.0016825744 -0.058154795 -0.069956385
000010 57 67 5b bd 4b 5f 04 3c ac 9e 5d 39 e8 2d a8 bc
       -0.05356535 0.00807936 0.00021135312 -0.020529702
000020 58 f5 b4 3b 76 90 35 bd 2b a3 98 3d 9c 2c a1 bb
       0.0055224113 -0.04432722 0.07452997 -0.004918648
000030 1f be 64 3d 80 bf b6 bc 62 73 54 bd cf 32 9e 3d
       0.055845376 -0.022308111 -0.05186785 0.07724535
000040 0d 9a 23 bd 2b 2e b2 3d 9b df bd 3d 9d dd 6d 3d
       -0.039941836 0.08700212 0.09271165 0.058072675
000050 0b ed db bc f5 c1 e0 3c 00 c9 a8 bd 9a 74 c6 3c
       -0.02684643 0.027436236 -0.08241463 0.024225522
000060 b7 bd 12 bc 1a e1 33 3d 79 e6 65 bd a7 e6 8f 3d
       -0.008956364 0.043915845 -0.056128 0.07026415
000070 5a 7b 46 3d 9a d6 4f 3d 4e 02 ad 3d 8a 3c 38 3d
       0.04845748 0.05074177 0.08447705 0.04497961
000080 b7 84 21 3c 6f 88 89 bd 84 34 ed ba 55 29 82 3d
       0.009858302 -0.06715476 -0.0018097316 0.0635554
000090 8a c5 3c bd 8b 41 81 3d 7d 46 a6 bd 1f d4 af 3d
       -0.046086825 0.063113295 -0.08118913 0.08585381
0000a0 31 ba 13 bd eb 58 9e 3d 29 c7 bc 3c e5 7f 6e bd
       -0.036066238 0.077318035 0.023044186 -0.05822744
0000b0 64 ee 85 bc be 56 97 bd f3 fe 3b 3d 57 a8 19 bd
       -0.016349025 -0.07389592 0.045897435 -0.037514057
0000c0 0f 78 70 3c ed 52 06 3d 7d d0 1b 3d 29 5a 2d bd
       0.014677062 0.032793928 0.038040627 -0.04232231
0000d0 8a 81 80 bd 2f b0 07 bd 1d c3 46 3b af a4 02 3b
       -0.062747076 -0.033127006 0.00303287 0.0019934585
0000e0 d2 36 80 bd 3b 4a ab 3b 02 42 3d bd 8f 0c 08 3c
       -0.06260456 0.005227355 -0.046205528 0.008303775
0000f0 90 73 d2 3c e5 a0 b4 3d ed 9a 5f bd bd c8 ac 3d
       0.02568987 0.08819751 -0.054591108 0.08436725
000100 f9 70 9a 3d ef e8 18 3d 6c 3f 12 bd e8 b5 9c bd
       0.07541079 0.037331518 -0.035705015 -0.07651883
000110 c1 18 26 bc e6 82 b7 3d 3d 28 95 3b 37 0f 15 3d
       -0.010137738 0.08960514 0.004551916 0.036391463
000120 d1 bf 9b 3d 3d 0e 1f 3d c2 8d 94 3d 33 3a 66 3d
       0.076049455 0.038831938 0.07253601 0.056207847
000130 5b 93 9a 3d 22 e9 84 ba 12 ed 62 bd e3 44 d6 3c
       0.07547637 -0.001014028 -0.05540187 0.026155895
000140 de a2 56 bd 00 5e a6 bd db 9b 6e 3d 67 0e 46 3d
       -0.052401416 -0.08123398 0.058254104 0.04835358
000150 7b 6f b1 bc 3e 46 96 3d 7f c4 28 bd 17 b1 3a bd
       -0.021659603 0.073376164 -0.04120302 -0.045579042
000160 09 70 4c bd 2b c5 6a 3d 86 9a ec bb 92 d2 ab bd
       -0.049911533 0.05731694 -0.007220569 -0.083897725
000170 f4 4a 84 bd 28 09 02 bd 6f 2e 97 bd 5d f0 16 3d
       -0.06459609 -0.031747013 -0.073819034 0.036850322
000180 7a dd a2 bc 35 ea b2 3d df ec 8a bd ad 01 67 3d
       -0.019880999 0.08736078 -0.06783461 0.056398083
000190 a0 0c 00 3d 9c 84 d5 3c 55 18 76 bd de 66 eb bc
       0.03126204 0.02606421 -0.0600818 -0.028735574
0001a0 4b 13 a8 bd 3e c1 68 3b f6 cc fb 3b 19 e1 5b ba
       -0.08206805 0.0035515572 0.0076843454 -0.0008387729
0001b0 9b cf bd 3d c3 60 8b bd dc 73 62 3d a2 6a 9a bd
       0.09268113 -0.06805565 0.055286273 -0.0753987
0001c0 ff b7 81 3d 11 42 19 bb 09 27 e3 3c 7d d2 e2 3c
       0.063339226 -0.0023385326 0.027728574 0.02768826
0001d0 45 61 90 bb 9d 87 08 bd 98 d9 8c 3d 83 ae da bc
       -0.0044061267 -0.033332456 0.0687744 -0.026694542
0001e0 24 84 69 3d d1 2e b4 bb bc 96 12 3d a8 3b ba 3c
       0.057010785 -0.005498745 0.035788283 0.022733524
0001f0 a1 d1 31 3d 67 e7 1e 3d b1 3a 36 3d 6a 53 48 bd
       0.04341281 0.0387949 0.044489566 -0.048907675
000200 ec 23 f6 3c 4d 06 bf bc 1a 4d b4 bc d2 05 b0 bd
       0.030046426 -0.023318434 -0.022009421 -0.0859486
000210 8f d4 66 bb 1a a3 a0 3d 7d 2f 94 3d 51 79 5e 3c
       -0.003522191 0.07843609 0.0723562 0.013578729
000220 5d 8f b7 3c 4b 56 49 bd fe 3e 98 3d 91 9f 52 bd
       0.022407228 -0.04915456 0.0743389 -0.051421706
000230 00 94 b1 bd 0b 5c 94 3d 99 0a 1c bd 40 78 19 3b
       -0.08670807 0.07244118 -0.038096044 0.0023417622
000240 1e 2a 6e bd f3 38 59 3d 1d 8b cd 3b dd c5 e7 bb
       -0.058145635 0.053032827 0.006272687 -0.0070731477
000250 5c 94 a1 bc 43 16 65 bd 51 a7 8a bc 41 1f 6f 3d
       -0.019724064 -0.055929434 -0.016925486 0.058379415
000260 36 91 29 bd db 66 38 3d 76 20 85 bd 2a f2 14 bd
       -0.04139825 0.045019966 -0.06500332 -0.03636376
000270 f0 d6 d5 bc 3b a9 b8 bc a3 d7 94 3d 9f a4 74 3c
       -0.026103467 -0.022541633 0.07267692 0.014931827
000280 e6 a7 10 bd 87 1e e5 3c ab 5b ac bc 9c 58 a6 3d
       -0.03531637 0.027968658 -0.021039804 0.0812237
000290 5e 7f 23 3d 70 10 6e 3d ab 51 49 bd 14 59 3e bc
       0.03991639 0.058121145 -0.04915015 -0.011617918
0002a0 08 01 ca ba e9 63 2d bc c4 c0 0e bd 79 56 a4 3d
       -0.0015411684 -0.0105829025 -0.034851804 0.08024306
0002b0 ba 69 be 3c 79 f0 67 3c 4b 86 4a bd d0 ed a6 bc
       0.023243774 0.014156454 -0.049444478 -0.02037707
0002c0 65 35 0d 3d 91 7b f3 3c ec 84 6d bb 05 b4 bc bd
       0.03447475 0.029722007 -0.0036242558 -0.092140235
0002d0 67 67 ac bd 66 bd 6d bd 3f 6a 2d bc b9 58 3e bb
       -0.0841816 -0.058041953 -0.010584413 -0.0029044582
0002e0 6a 59 c5 bc 4b c4 19 3d 48 a8 17 3d aa c7 8a 3b
       -0.024090488 0.037540715 0.03702572 0.0042352276
0002f0 36 4d be bd 77 11 82 bc 87 cc 2d 3d 81 65 12 3d
       -0.092920706 -0.015877469 0.04243138 0.035741333
000300 31 96 5d bd 37 bc 01 bc 30 2c 63 3d d6 6e 0e 3c
       -0.05409831 -0.007918409 0.055462062 0.0086934175
000310 ee ca 7e 3c d8 0c e9 bc 01 56 2f 3c 8c 8c 95 3d
       0.015551312 -0.028448507 0.010701657 0.07302198
000320 4b de 2f bd 22 3c 75 bd 20 9c b8 3c 0d 3e 67 3c
       -0.042936604 -0.0598718 0.022535384 0.014113915
000330 87 2a ae bd 4c 26 83 3d 93 1e 56 3d 88 21 67 3b
       -0.08504205 0.06403789 0.05227525 0.003526779
000340 ee 75 86 bd ea 3a 63 3c 4d 14 8a bd c2 7f 8a bb
       -0.06565462 0.013869027 -0.06742153 -0.0042266557
000350 60 c5 90 bd 4a 4a 43 3d 60 74 1c 3d 36 d1 61 3d
       -0.07068896 0.04767827 0.03819692 0.05513116
000360 1e 74 0e bd 5d ae 8f bd bf e0 71 bd 2b df 8a 3d
       -0.034778707 -0.07015679 -0.059052225 0.06780847
000370 83 86 03 bd d7 6e 9b bd 5a 62 59 3d d9 37 36 3c
       -0.032110702 -0.075895004 0.05307231 0.011121714
000380 36 e8 79 3d 9b f1 62 bd 8e da a9 3c f3 7f 1c 3d
       0.06101247 -0.055406194 0.020734098 0.03820796
000390 83 eb be 3c ab 03 9d bd da ba d1 bc ea 7b 4f bd
       0.02330566 -0.07666715 -0.025601793 -0.050655283
0003a0 d5 70 38 3d f1 b8 95 3c 7e 50 70 bd 41 ed 30 3d
       0.04502948 0.018276663 -0.058670513 0.043195013
0003b0 0c 64 c9 bc 5c 22 33 bd 1d e9 81 3c 84 02 9a bd
       -0.024583839 -0.04373394 0.015858227 -0.07520011
0003c0 9c db 86 bd 81 a5 6c bd 47 e2 0f 3d 53 7a ae bc
       -0.06584856 -0.057775024 0.035127904 -0.021298563
0003d0 a4 5f 25 3d a4 a5 a3 bd 16 17 26 3d 4f 6c 0a 3d
       0.040374413 -0.07990578 0.04054936 0.033794697
0003e0 2b da 13 3d ae dc e8 bb ad ef c5 3c 7e 63 75 bc
       0.036096733 -0.007106385 0.024162138 -0.014977334
0003f0 e8 8b 54 3d 66 25 a2 3d 0e 3d b1 bc 80 48 8a bd
       0.051891237 0.079172894 -0.021635558 -0.067521095

layers.fc3.weight f4 [40, 128]
000000 fb 14 8b bc 42 f1 8e 3d 92 6b 5a bd 33 e8 4b 3d
       -0.016977778 0.0697961 -0.053325243 0.04978199
000010 ff 4b 6b bd ad 58 6a bc 2b be 70 3d 69 d1 a1 bd
       -0.057445522 -0.0143033685 0.05877511 -0.0790127
000020 00 25 b2 bd af 90 af bc 28 2b b0 3c f5 e0 9f 3b
       -0.086984634 -0.021431295 0.021504954 0.004879112
000030 7e bb 54 bc 78 51 0c bc 90 dd 64 3d 98 c4 80 bd
       -0.012984155 -0.008564346 0.05587536 -0.06287497
000040 e8 a8 95 bd 6d 25 3f bd c5 a9 93 3a bd c3 ab bd
       -0.07307607 -0.04666655 0.0011265805 -0.083869435
000050 75 00 61 bd c5 9e 96 bc a0 49 3d bc 8c 62 54 3c
       -0.054932076 -0.018386254 -0.011553198 0.0129629485
000060 f2 27 6b bc 04 69 83 bd 80 9a 90 3c 8f 5e f9 3b
       -0.014352785 -0.064165145 0.017651796 0.007610149
000070 32 9d b2 3c 12 6f 85 bd 21 7f f0 3c 19 a5 38 3d
       0.021803472 -0.065153256 0.029357495 0.045079324
000080 9c 19 80 bd b6 5d 74 bd eb 7e 25 3c 85 2e c0 3c
       -0.062548846 -0.059659682 0.01010106 0.023459682
000090 38 52 38 bd 43 22 8f 3d be 97 9a bd c3 a2 91 3c
       -0.045000285 0.06988957 -0.07548474 0.017777806
0000a0 63 88 3b 3d 0d 8a 1a bd 19 5c 58 bd 74 cf 0d bb
       0.045784365 -0.03772931 -0.052822206 -0.0021638544
0000b0 93 b2 66 bd 10 27 90 bd 36 ce c0 3a 3b 0f 76 bd
       -0.056322645 -0.070387006 0.0014709893 -0.06007312
0000c0 f9 ac 91 bc 6f d4 cc 3c 6d 62 60 3a 01 65 a7 3c
       -0.017782675 0.02500364 0.00085595885 0.020433905
0000d0 56 8e c5 3b dd 30 ae bd 04 69 2b bc 4a 01 37 bd
       0.0060289307 -0.08505414 -0.010462049 -0.044678964
0000e0 ce 4e 3a bd 85 12 30 3c 50 a9 a2 3d 82 cd 1c 3d
       -0.04548531 0.010746603 0.0794245 0.038281925
0000f0 aa d5 96 3d 27 f1 81 3d c7 c3 4a bd 01 84 f0 bc
       0.07364972 0.06344824 -0.049503114 -0.02935982
000100 c3 1a 17 bd 63 d3 44 bd 13 d1 65 bd 82 a3 63 bd
       -0.036890756 -0.048053157 -0.05610759 -0.055575855
000110 f2 89 3a 3d 26 67 98 3d 09 07 a1 3d de 5e a5 bd
       0.04554171 0.07441549 0.0786267 -0.08074735
000120 58 d6 f1 3c e2 56 94 3d 75 89 9c 3d bb d8 28 bd
       0.029521152 0.07243134 0.07643405 -0.041222315
000130 9d d5 77 3d 26 80 d8 bc 1b 2a 70 3d b5 f3 93 bc
       0.060506452 -0.026428293 0.058633905 -0.018060545
000140 94 18 8d 3d 53 ba 98 bd 53 7e 28 3d e9 4b 13 3d
       0.068894535 -0.074574135 0.041136097 0.035961065
000150 36 3a bc 3c cb f0 9a bd 9b 32 66 3d 65 dc 0e 3d
       0.022976976 -0.07565459 0.056200605 0.034878153
000160 c9 44 a6 bb 86 38 96 3d 4f 04 9f 3b 5a 82 b2 3d
       -0.005074118 0.07335 0.0048528085 0.08716269
000170 b8 0b d3 bc be 99 94 3b 8c 30 39 3c ca c0 57 bd
       -0.025762424 0.004534929 0.011303078 -0.052674092
000180 e5 99 85 3c 27 da 17 3d e7 d4 a0 3d 69 0b c1 3c
       0.016308734 0.03707328 0.07853108 0.023565011
000190 bb 38 84 3d 2f bb 16 bd 62 d3 7c 3d 80 c2 7c 3d
       0.06456133 -0.036799606 0.061725028 0.061708927
0001a0 66 2a a1 bd d3 89 29 3c 3a ec 37 bc 1a 97 a9 bd
       -0.07869415 0.010347801 -0.011225754 -0.082807735
0001b0 b8 c5 98 3d 8f b8 25 bd 1c 59 68 3d 91 c0 68 bc
       0.07459587 -0.040459212 0.056725606 -0.014206068
0001c0 0e 50 44 3d 8c 26 8a 3d ac c5 4b 3d db cf 5a 3d
       0.04792791 0.067456335 0.04974906 0.053420883
0001d0 c1 ba de bb c1 8f 98 3d ca 31 92 3b 53 03 05 bd
       -0.006797165 0.07449294 0.0044615017 -0.032473873
0001e0 0a 0f da bb 6c 31 1c 3c 0d 0e e6 3c ac 4b 5d bd
       -0.006654625 0.0095332675 0.028082872 -0.054027244
0001f0 d7 1a cf bb c8 61 79 3c 18 22 47 bc 06 d8 9a bb
       -0.006320338 0.015221067 -0.012154125 -0.004725459
000200 3e 9f 9e bd ed 4c 7d bd 39 09 23 3d b3 2c 2b 3d
       -0.07745217 -0.06184094 0.039803717 0.041790675
000210 8c d1 a3 bc 60 44 8e 3d 82 83 4e 3d 31 48 8d bd
       -0.01999738 0.06946635 0.050418384 -0.06898535
000220 28 cb 33 bd af 25 89 bd a5 64 6b bd cb cc 15 3c
       -0.043894917 -0.06696641 -0.05746903 0.009143065
000230 c1 7b b7 bc 99 cb 8e 3d 76 d3 4a bd 0e 91 32 3c
       -0.022397878 0.06972427 -0.04951807 0.010898842
000240 cf 1f f3 3c b2 28 94 bc f5 92 3c 3d 3b 51 ba 3d
       0.029678253 -0.018085811 0.046038587 0.09097525
000250 8c 5f 84 3d 40 13 3c bd 6a f4 2b 3d 37 f0 85 3d
       0.064635366 -0.045916796 0.04198114 0.06539958
000260 54 d7 1f bd 29 30 86 3a e2 9e 43 3d 98 ae 66 bd
       -0.039023712 0.0010237742 0.047758944 -0.05631885
000270 89 6d 31 3d 82 e4 22 bd 9c 81 9a 3d 87 3a 94 3c
       0.04331735 -0.039768703 0.07544252 0.018094314
000280 13 b6 3c bc 94 32 95 bd 20 11 7b bd 4f 74 67 39
       -0.011518019 -0.07285038 -0.06129563 0.00022073205
000290 e1 ef 81 bd 95 4a 99 bd 0b 2c ca bc 03 ae cf 3c
       -0.063445814 -0.074849285 -0.024679204 0.02535153
0002a0 4e 82 64 3d 1a 2f 52 bd b7 a9 20 bd 58 20 e7 3c
       0.05578833 -0.05131445 -0.039224353 0.028213665
0002b0 91 9a f6 3c f4 d5 a9 3c a3 3f 88 3d 3f 20 18 bd
       0.030103 0.020731904 0.06652763 -0.037140127
0002c0 47 17 15 3c 78 a6 85 bd 26 f8 74 3d e4 29 41 3d
       0.009099788 -0.06525892 0.059806965 0.04715909
0002d0 10 c7 9c bd 63 71 9f bd f5 68 0a bd 2e 9a 43 3d
       -0.07655156 -0.07785299 -0.0337915 0.04775446
0002e0 dc 39 98 3d 36 76 11 3d 2f bf 8c bd e8 8a 47 3c
       0.07432911 0.035513125 -0.06872403 0.012179114
0002f0 15 95 9b bc 29 a1 90 3d d7 53 93 3d f0 67 5c 3c
       -0.018991986 0.07061989 0.071937256 0.013452515
000300 f9 60 86 bd 0e c2 79 3d 5e 85 25 bd 74 b7 8d 3d
       -0.06561465 0.06097608 -0.040410392 0.069197565
000310 7d ec 81 3c e0 50 af 3d e5 ad 68 3a 25 84 2a 3d
       0.015859837 0.085603476 0.000887601 0.04162993
000320 11 f9 00 39 47 00 8f 3d 19 c4 e9 3b 0e c7 be 3c
       0.00012299816 0.06982475 0.0071339724 0.023288276
000330 5f e5 4e 3d 45 83 0a bd 0a 39 9d 3d 09 c6 a0 3d
       0.050511714 -0.033816595 0.07676895 0.07850272
000340 9c e5 24 bd 7e 96 64 bc 3f 60 a3 bc e7 64 be bc
       -0.040258035 -0.013951896 -0.019943355 -0.023241473
000350 41 6f 99 3c 26 2f 23 bd 5f e2 58 bb e3 71 04 3d
       0.018729808 -0.039839886 -0.0033093912 0.032335173
000360 0a c1 9b 3d a8 f2 7c 3d 1d 44 d8 3c 37 ff 15 bd
       0.07605179 0.061754853 0.026399666 -0.036620345
000370 0f e8 1a bc 7b 4c 0f bd 8b c1 9d 3d df 27 d4 3c
       -0.009454741 -0.034985047 0.07702931 0.025897918
000380 49 c2 fe 3c 5f a4 cc bc 16 b4 85 bd 7d f4 9f bd
       0.031098502 -0.024980722 -0.06528489 -0.07810304
000390 2b 2d 48 bd 8b 9f e5 bb 3b b9 8f bd b3 fe 43 3d
       -0.0488712 -0.0070075444 -0.07017752 0.047850322
0003a0 a8 cf bc bc 5a 4c 83 bc 63 ac 36 bd 17 9f 34 bd
       -0.023048237 -0.016027618 -0.044597995 -0.044097032
0003b0 42 eb 8f 3d 80 c8 30 3c 8a 8a 95 3d b7 47 d6 bc
       0.07027294 0.01078999 0.07301815 -0.026157243
0003c0 b2 3d f6 3c 53 21 8e 3d 41 c0 33 3d 2a e6 5f bd
       0.030058715 0.0693995 0.04388452 -0.05466286
0003d0 1a d1 2e bd 6e d6 82 bd 51 d3 00 bd 7b 31 53 3b
       -0.042679884 -0.063885555 -0.031451527 0.0032225538
0003e0 94 a2 9a 3d de df c6 bc 8d 32 21 3c 45 02 3f bd
       0.075505406 -0.02427667 0.009838712 -0.046633024
0003f0 f4 ca 38 3d c2 a2 44 bd 42 b6 ff ba 9b 05 9f 3d
       0.045115426 -0.04800678 -0.0019509273 0.07764741
